cgcnnv/models/model_best.pth.tar (torch, 673734 bytes, 58 tensors)

embedding.weight f4 [64, 92]
-0.029536733 -0.07360656 -0.06096709 0.009187231 0.016857991 -0.03051092 -0.0038591067 0.1037513
-0.0071487785 0.06442081 0.110618584 -0.016888969 0.027516218 0.011667477 -0.02603047 0.08470239
0.06553228 0.04789046 -0.051875573 -0.07206969 -0.113851905 -0.07620892 0.06273074 0.00498797
-0.10600585 0.09284189 -0.08690901 -0.048370842 -0.02035984 0.027123243 0.044784155 0.11848311
-0.053588826 -0.005569831 -0.08435024 -0.045646425 -0.046325516 -0.0720055 0.03825527 0.11857153
0.06909443 0.12007678 0.018060679 0.07951508 -0.015291834 -0.046481725 -0.07354485 -0.09402157
-0.03730417 0.059992373 0.012785854 0.05779854 0.04555415 0.0758026 0.06121592 0.00079518993
0.10266732 0.03416476 0.08120922 -0.066740416 0.005453709 0.09479004 -0.05267202 0.046900142
0.11888187 -0.10426074 0.078924544 0.09402124 0.092024535 0.02799248 0.075597726 0.047677092
0.021854104 0.010906731 -0.002911558 0.024040084 -0.054998998 0.0189843 0.0054365383 -0.04470388
-0.066681184 0.0968548 -0.0010258381 0.10600247 0.067940935 -0.017909532 -0.018805005 -0.09082429
0.044600114 0.010535253 0.012230893 -0.028332328 -0.049616206 0.08311371 0.11296603 -0.08996545
0.016040126 0.013993504 0.024020137 0.016837053 0.05318835 0.03766085 0.02866604 -0.07138485
-0.030855134 -0.02018472 -0.03868817 0.045333475 -0.05294144 0.096517965 0.037414737 -0.02684037
0.11495997 -0.017180717 0.088752754 0.1003484 -0.0125598945 -0.08449432 -0.05288148 0.07861085
0.06145057 -0.07050419 0.013926661 -0.016328536 -0.012542539 0.06823704 -0.031043053 0.04085622
0.07433309 -0.074473895 -0.027726335 -0.078065336 -0.02846742 -0.06229059 0.07325164 -0.0070480043
0.017735146 0.010485421 -0.090893365 -0.08776667 0.035337772 0.07426705 -0.041135166 -0.03939446
0.017723992 0.03789181 -0.0423788 -0.11323214 -0.051163245 -0.025316449 -0.08742968 -0.03776916
0.0040936433 -0.048200034 0.045672886 -0.05814688 0.033969503 -0.056025933 -0.056771662 -0.031004995
0.038728315 -0.042829778 -0.021276457 -0.091362126 -0.04349817 -0.10447164 -0.0010902924 0.07931328
-0.04217952 -0.0696832 0.09927075 0.074573085 -0.095492385 0.018283462 0.06189255 0.008220494
0.0627594 0.0047590923 0.031223768 -0.037584446 -0.085051045 -0.09181296 0.08264722 0.013131983
-0.06157453 -0.07194195 -0.10420906 0.0074453494 0.09544014 0.07942385 -0.019161345 0.033895
0.05829338 0.0037294603 -0.08872337 -0.09214088 0.029038563 -0.056462366 0.060104486 -0.03371431
-0.045674965 -0.059723657 0.026900195 -0.011692762 -0.049501225 -0.047636226 -0.013638397 0.024837364
-0.024552355 -0.027591316 0.08355789 0.1094525 0.08013068 0.12124262 0.06439794 -0.013335165
-0.022236478 -0.07524026 0.028613577 0.07541522 -0.028179746 -0.046387516 -0.0044898493 0.111302935
-0.057505354 0.07873957 0.0131442165 -0.07379286 -0.08755908 0.043962814 -0.039176043 0.09765723
-0.06666483 0.0070975223 -0.08927723 0.049039047 0.061114352 0.06291301 0.018530281 0.05368547
-0.031789903 0.08820384 -0.08691917 -0.045398474 -0.11498834 -0.05087301 -0.07928073 0.013564243
0.04092451 -0.04076193 0.012688942 0.037316658 0.067654826 0.02650363 -0.0050907796 -0.040876463
00000000: 05f7 f1bc 09bf 96bd a1b8 79bd 0a86 163c
00000010: c519 8a3c 09f2 f9bc 11e9 7cbb 907b d43d
00000020: 4d40 eabb 0fef 833d ff8b e23d bc5a 8abc
00000030: b169 e13c f228 3f3c da3d d5bc 7278 ad3d
00000040: ca35 863d c928 443d 7b7b 54bd 4699 93bd
00000050: 302b e9bd 6c13 9cbd f978 803d 2072 a33b
00000060: 9819 d9bd e423 be3d 5afd b1bd 8120 46bd
00000070: aec9 a6bc 9031 de3c 976f 373d 46a7 f23d
00000080: f57f 5bbd 2183 b6bb d2bf acbd bff7 3abd
00000090: d3bf 3dbd 9f77 93bd 8fb1 1c3d a1d5 f23d
000000a0: 6181 8d3d d1ea f53d fdf3 933c cdd8 a23d
000000b0: 9a8a 7abc 9f63 3ebd af9e 96bd 628e c0bd
000000c0: 42cc 18bd 90ba 753d c27b 513c 29be 6c3d
000000d0: fd96 3a3d 653e 9b3d 8bbd 7a3d 4b74 503a
000000e0: 3e43 d23d 59f0 0b3d 0551 a63d 33af 88bd
000000f0: 07b5 b23b 4821 c23d 9ebe 57bd 5d1a 403d
00000100: 5678 f33d a886 d5bd 31a3 a13d 358e c03d
00000110: 5c77 bc3d 7c50 e53c fbd2 9a3d 0e49 433d
00000120: 6107 b33c 25b2 323c d6cf 3ebb b6ef c43c
00000130: a146 61bd f684 9b3c fd24 b23b 6a1b 37bd
00000140: 2590 88bd cf5b c63d 6a75 86ba d317 d93d
00000150: 9e24 8b3d 03b7 92bc f40c 9abc 1602 babd
00000160: 9cae 363d 0e9c 2c3c 1564 483c 3319 e8bc
00000170: 5d3a 4bbd 8537 aa3d bc5a e73d ce3f b8bd
00000180: 9566 833c 0345 653c e1c5 c43c dced 893c
00000190: 07dc 593d 4342 1a3d 0bd5 ea3c 3832 92bd
000001a0: e8c3 fcbc 6d5a a5bc 7d77 1ebd 98af 393d
000001b0: 20d9 58bd 36ab c53d 3240 193d 56e0 dbbc
000001c0: 2270 eb3d 93be 8cbc 01c4 b53d 7683 cd3d
000001d0: 04c8 4dbc 5c0b adbd 409a 58bd bafe a03d
000001e0: 98b3 7b3d 8064 90bd a62c 643c 6cc3 85bc
000001f0: 397f 4dbc dcbf 8b3d 004e febc da58 273d
00000200: f23b 983d c585 98bd 5722 e3bc b8e0 9fbd
00000210: 8234 e9bc 6b24 7fbd f504 963d f2f2 e6bb
00000220: 4c49 913c 0bcb 2b3c 4d26 babd 03bf b3bd
00000230: 57be 103d 5319 983d 597d 28bd 165c 21bd
00000240: e831 913c 7134 1b3d 6595 2dbd 41e6 e7bd
00000250: 8d90 51bd 7164 cfbc 550e b3bd d6b3 1abd
00000260: f823 863b 666d 45bd 7e13 3b3d 6c2b 6ebd
00000270: 9b23 0b3d 737b 65bd 6789 68bd 30fe fdbc
00000280: 95a1 1e3d 476e 2fbd f74b aebc 111c bbbd
00000290: 232b 32bd 3af5 d5bd 24e8 8eba 006f a23d
000002a0: 6fc4 2cbd 11b6 8ebd 774e cb3d c6b9 983d
000002b0: 8391 c3bd 33c7 953c 0b83 7d3d 40af 063c
000002c0: 0088 803d 29f2 9b3b fdc8 ff3c 26f2 19bd
000002d0: 3e2f aebd 6f08 bcbd f242 a93d 8727 573c
000002e0: 9335 7cbd 4d56 93bd 8f6b d5bd 1ef8 f33b
000002f0: 1f76 c33d f9a8 a23d 41f8 9cbc 7cd5 0a3d
00000300: 0ac5 6e3d f669 743b 99b4 b5bd 5cb4 bcbd
00000310: 48e2 ed3c 1545 67bd 1f30 763d 0418 0abd
00000320: ac15 3bbd cba0 74bd cc5d dc3c 0093 3fbc
00000330: ccc1 4abd 341e 43bd 9573 5fbc ba77 cb3c
00000340: 0522 c9bc 2f07 e2bc 6620 ab3d a228 e03d
00000350: 8e1b a43d 0d4e f83d 11e3 833d bc7b 5abc
00000360: 4629 b6bc 9117 9abd 0567 ea3c 4b73 9a3d
00000370: 36d9 e6bc d600 3ebd 961f 93bb cbf2 e33d
00000380: bc8a 6bbd 3642 a13d d75a 573c b620 97bd
00000390: 2d52 b3bd 5a12 343d 0f77 20bd 8400 c83d
000003a0: 9287 88bd 5592 e83b fbd6 b6bd 2bdd 483d
000003b0: 0b53 7a3d 89d8 803d d1cc 973c 4ce5 5b3d
000003c0: 2136 02bd 37a4 b43d ae02 b2bd c0f3 39bd
000003d0: 027f ebbd 3860 50bd ef5d a2bd 8f3c 5e3c
000003e0: 76a0 273d fbf5 26bd 48e5 4f3c 5ad9 183d
000003f0: 9d8e 8a3d 241e d93c 8ed0 a6bb 146e 27bd

embedding.bias f4 [64]
0.0034378234 -0.0364387 0.06873045 0.068883404 -0.050870884 -0.0050322367 -0.0035849204 -0.09445558
0.012326673 0.06731063 0.048040424 0.07979836 0.022387046 -0.08800393 -0.08641309 -0.013652273
0.033613868 -0.03858915 0.051033422 -0.09523646 0.086219504 -0.010444388 -0.08459092 0.071642265
0.054301765 0.075046994 0.06408685 -0.083446644 -0.09870374 -0.09409321 -0.032440245 0.090335906
-0.059041213 0.028144136 -0.030360352 -0.07833612 0.045422774 0.04225456 -0.110998884 0.061445713
0.033224083 0.0011771162 -0.106992185 -0.011395536 0.08884472 -0.039911713 -0.020542197 0.02252076
-0.09091225 -0.07872852 0.032571193 -0.10006485 -0.09502393 -0.015381091 0.054837108 0.06402703
-0.09767364 0.082008794 -0.09846594 0.07006378 0.041148867 0.009464518 -0.07423837 -0.10560804
00000000: 1b4d 613b bf40 15bd 8dc2 8c3d be12 8d3d
00000010: fd5d 50bd 76e5 a4bb fcf0 6abb ed71 c1bd
00000020: d0f5 493c 28da 893d 09c6 443d 536d a33d
00000030: 0a65 b73c 683b b4bd 59f9 b0bd c9ad 5fbc
00000040: b2ae 093d a80f 1ebd 6c08 513d 550b c3bd
00000050: da93 b03d f01e 2bbc 013e adbd 2eb9 923d
00000060: 876b 5e3d 3db2 993d f73f 833d 13e6 aabd
00000070: 3025 cabd f1b3 c0bd 10e0 04bd 0802 b93d
00000080: 33d5 71bd 888e e63c 46b6 f8bc b06e a0bd
00000090: 3b0d 3a3d 1e13 2d3d 6253 e3bd 80ae 7b3d
000000a0: fa15 083d 7749 9a3a b81e dbbd 58b4 3abc
000000b0: 38f4 b53d 777a 23bd 1c48 a8bc 757d b83c
000000c0: 3430 babd 6b3c a1bd 5f69 053d cdee ccbd
000000d0: e89b c2bd f900 7cbc e09c 603d 9a20 833d
000000e0: 1e09 c8bd 3af4 a73d 83a8 c9bd 997d 8f3d
000000f0: b78b 283d 1111 1b3c 490a 98bd 0749 d8bd

convs.0.fc_full.weight f4 [128, 169]
-0.034934778 -0.018423982 -0.046265613 -0.020848507 -0.0067915055 -0.06362939 -0.048553243 -0.05017674
-0.043628518 0.07556652 0.045625396 -0.010701549 -0.047122065 -0.053825878 -0.06999078 0.06553975
0.0062160967 0.028943129 -0.017536137 0.071548834 -0.06964674 -0.061028287 0.027263444 0.006140498
0.013900362 0.011829416 -0.0008514696 0.03444287 -0.02036679 0.023548277 -0.042657595 0.03332192
0.013245795 -0.05984286 -0.042089876 0.07123149 -0.06772669 0.014274801 -0.0022810863 -0.05950894
0.06203232 0.045993894 -0.039869197 0.0039186156 -0.025827177 0.033482216 0.010259925 0.06366532
0.05177808 -0.011340303 -0.0011835488 0.016567305 -0.0010305693 0.038219966 0.045972094 0.036874663
0.050646964 -0.020192204 -0.041210823 0.043003164 0.0756956 0.01897307 -0.061705973 0.020991769
-0.0066817976 0.05335819 0.03754014 0.03666001 0.081186645 -0.045042753 0.021640483 0.027428165
-0.035752714 -0.00569489 -2.0729894e-05 0.062108476 0.06088804 -0.051710624 0.036839053 -0.037689872
-0.05276648 -0.0077928547 -0.042122845 -0.045115557 0.07558667 0.04560399 -0.031531315 0.04223573
-0.04092349 -0.026130784 -0.010389125 0.009025373 0.039593417 0.04142986 0.08043339 -0.042813495
0.029903818 0.018843578 -0.045866158 -0.08534469 0.0069493046 0.016338564 0.001769451 0.010621981
-0.062279228 -0.053594816 0.073442526 -0.0030255797 0.006354514 0.027280958 -0.050088245 0.010652247
-0.024515344 -0.043572083 0.025716735 0.05367733 0.06958942 0.058721013 0.0074770004 -0.05170884
0.03595857 -0.032783743 -0.0026287718 -0.017044505 -0.021029942 -0.040741455 -0.042824272 0.049860884
-0.056135252 -0.0059851557 -0.057344645 -0.03241367 0.032235157 -0.040473793 -0.06609775 -0.05153195
0.009912517 0.10994139 -0.03906717 -0.002357794 -0.005977816 -0.0070246826 0.0034422362 0.026329398
-0.0440163 -0.09470235 -0.04164607 -0.06453634 -0.07392465 0.010855323 -0.020994961 -0.012292985
-0.035459157 0.02868841 -0.028089238 0.05660451 0.06273942 -0.07114785 -0.025177116 -0.036255453
0.0062805284 -0.022117807 0.0074370387 0.028521976 0.040723205 -0.05931802 0.020802706 -0.021113101
-0.004247993 -0.020476444 -0.047865126 0.04429956 0.023459222 0.045337576 0.0024397213 0.029318126
0.046984 0.0553674 -0.0663397 -0.06256297 0.05735924 -0.003362552 -0.023812601 0.048078682
0.048864517 0.042867664 -0.026810236 -0.04125423 0.008564166 0.0018736321 -0.054488942 0.07348417
-0.06963113 -0.06973957 -0.038051896 0.00084637816 -0.04146956 -0.0453474 0.050187085 -0.028187476
0.015293845 -0.036840342 -0.061964165 -0.002198206 -0.02507863 -0.013284348 -0.061707832 0.06688598
-0.04110272 0.044059016 -0.01464968 -0.03331888 -0.06727456 0.021895403 -0.05565936 0.061579153
0.023089856 -0.041202445 -0.07524432 0.040266324 -0.075127676 0.07816076 0.07901011 -0.01944716
0.07186131 -0.05312128 -0.016390726 -0.014049503 0.009811618 -0.016061103 -0.033686105 -0.01882795
0.013899277 -0.004227667 0.046189766 0.015984615 0.035439227 -0.027757933 0.03642471 0.04623128
0.061707485 -0.026712414 -0.017758291 -0.027513893 0.0012901311 -0.042902056 -0.06503896 -0.04826255
0.029092629 0.011147092 -0.0073250816 -0.02167532 0.006407288 0.07911847 0.08099651 0.00039684537
00000000: c517 0fbd e4ed 96bc 0381 3dbd 7dca aabc
00000010: 478b debb 2050 82bd c4df 46bd 2086 4dbd
00000020: d1b3 32bd 9fc2 9a3d b2e1 3a3d 8d55 2fbc
00000030: 1103 41bd 8678 5cbd 5357 8fbd b439 863d
00000040: 66b0 cb3b 241a ed3c f2a7 8fbc 3288 923d
00000050: f3a2 8ebd ccf8 79bd 9657 df3c 3b36 c93b
00000060: 58be 633c 2bd0 413c 2835 5fba f813 0d3d
00000070: 41d8 a6bc 51e8 c03c bbb9 2ebd 917c 083d
00000080: e404 593c c91d 75bd 6f66 2cbd d1e1 913d
00000090: 4ab4 8abd dbe0 693c 477e 15bb a5bf 73bd
000000a0: 9a15 7e3d 1864 3c3d e24d 23bd bb67 803b
000000b0: 8493 d3bc a624 093d 3f19 283c f762 823d
000000c0: 4115 543d aecc 39bc 4f21 9bba 28b8 873c
000000d0: 2b14 87ba 8a8c 1c3d 3c4d 3c3d e309 173d
000000e0: 3173 4f3d 1f6a a5bc aecc 28bd 1624 303d
000000f0: 4b06 9b3d 696d 9b3c 67bf 7cbd eef6 ab3c
00000100: fbf2 dabb 1e8e 5a3d b1c3 193d cf28 163d
00000110: 2f45 a63d c07e 38bd 6247 b13c 08b1 e03c
00000120: 7071 12bd 339c babb 1ce5 adb7 7565 7e3d
00000130: bd65 793d 85ce 53bd 8ce4 163d b260 1abd
00000140: aa21 58bd 345b ffbb 0189 2cbd 17cb 38bd
00000150: 2fcd 9a3d 40cb 3a3d fb26 01bd 5fff 2c3d
00000160: 649f 27bd 3a10 d6bc 2637 2abc 28df 133c
00000170: b52c 223d 5bb2 293d 43ba a43d 345d 2fbd
00000180: daf8 f43c d95d 9a3c 27de 3bbd 32c9 aebd
00000190: feb6 e33b 74d8 853c ecec e73a d107 2e3c
000001a0: 8118 7fbd 3d86 5bbd 0969 963d ce48 46bb
000001b0: 8739 d03b 517c df3c 5529 4dbd c386 2e3c
000001c0: 67d4 c8bc a478 32bd e7ab d23c c3dc 5b3d
000001d0: e684 8e3d 7285 703d a001 f53b a6cc 53bd
000001e0: 4b49 133d 3f48 06bd 7947 2cbb eba0 8bbc
000001f0: fc46 acbc 83e0 26bd 8168 2fbd ed3a 4c3d
00000200: 14ee 65bd 201f c4bb 38e2 6abd 32c4 04bd
00000210: 0309 043d d9c7 25bd 425e 87bd 2a13 53bd
00000220: 1c68 223c f428 e13d e604 20bd 3885 1abb
00000230: 8ee1 c3bb 4f2f e6bb 2497 613b c0b0 d73c
00000240: 704a 34bd 4ef3 c1bd 1295 2abd a12b 84bd
00000250: cf65 97bd 86da 313c a0fd abbc 8468 49bc
00000260: 9f3d 11bd f503 eb3c 671b e6bc 21da 673d
00000270: 867d 803d f7b5 91bd 3d40 cebc 9980 14bd
00000280: e4cc cd3b 6730 b5bc 67b2 f33b eba6 e93c
00000290: 60cd 263d 74f7 72bd 706a aa3c 62f5 acbc
000002a0: c032 8bbb 37be a7bc 390e 44bd 7573 353d
000002b0: 8e2d c03c e5b3 393d bbe3 1f3b 912c f03c
000002c0: 4b72 403d edc8 623d 1cdd 87bd 0421 80bd
000002d0: 86f1 6a3d 435e 5cbb a512 c3bc 27ee 443d
000002e0: 2926 483d 0196 2f3d 24a1 dbbc 32fa 28bd
000002f0: b750 0c3c a994 f53a cc2f 5fbd de7e 963d
00000300: c49a 8ebd 9fd3 8ebd 4edc 1bbd 7adf 5d3a
00000310: fcdb 29bd 32be 39bd f990 4d3d 6ce9 e6bc
00000320: 0993 7a3c e6e5 16bd 23ce 7dbd c70f 10bb
00000330: b371 cdbc 98a6 59bc 5ac1 7cbd 84fb 883d
00000340: 535b 28bd 3a77 343d 3605 70bc 6179 08bd
00000350: 3fc7 89bd fd5d b33c 12fb 63bd 6c3a 7c3d
00000360: f026 bd3c e5c3 28bd b219 9abd 4dee 243d
00000370: 8adc 99bd c012 a03d 0dd0 a13d a74f 9fbc
00000380: 062c 933d b395 59bd d845 86bc e32f 66bc
00000390: e9c0 203c 9392 83bc 71fa 09bd 133d 9abc
000003a0: cbb9 633c 3e88 8abb 7b31 3d3d 2bf2 823c
000003b0: b928 113d 9b64 e3bc 1432 153d 035d 3d3d
000003c0: fdc0 7c3d fed3 dabc d679 91bc d164 e1bc
000003d0: 9e19 a93a 11ba 2fbd 2533 85bd f4ae 45bd
000003e0: aa53 ee3c 4ba2 363c 3d07 f0bb 7190 b1bc
000003f0: 3af4 d13b dd08 a23d 80e1 a53d af0f d039

convs.0.fc_full.bias f4 [128]
-0.058011517 -0.070241466 -0.06573735 -0.010714368 0.02471335 -0.024071828 0.06626204 0.0633841
0.0331072 0.0481758 -0.02091107 -0.0013014842 -0.018353822 -0.059091885 0.024230987 -0.05052469
-0.018947573 -0.050424743 0.03525821 0.02973578 -0.02716039 0.0402457 0.043365918 0.01971548
0.008650847 0.049691062 0.059167486 -0.07613063 -0.04882824 -0.07431274 -0.017256146 -0.04342188
0.018306367 -0.02222285 -0.07636158 0.045988526 -0.06532914 -0.05586934 -0.0763283 0.046081915
0.01144077 -0.05640021 -0.049944244 -0.0061879307 0.07147324 -0.002953842 0.015365553 0.0015152472
-0.023470476 -0.015075712 0.033753194 -0.042472538 -0.03169202 -0.0052599306 0.06278898 -0.075780354
-0.040790733 -0.066616684 -0.012566523 0.056577466 0.057240166 -0.06227515 -0.048045788 0.010736762
-0.039243218 -0.052634854 -0.0638728 0.031330477 0.0640864 0.039302632 -0.0634242 -0.036247853
-0.02961759 0.027244601 0.028280567 -0.044591323 0.019982116 -0.022769928 0.06845344 -0.054793816
0.043936532 -0.041176137 -0.035039604 0.0018996616 0.036744073 0.04475164 -0.05849973 -0.06324075
-0.0030809941 0.04676009 0.0065596765 -0.024446273 0.029625915 -0.03960793 -0.06017781 0.04676757
0.016310602 -0.025199218 0.014868148 0.021002157 -0.009780941 -0.054178637 0.031148452 0.068006955
-0.04597088 -0.024579559 0.01752488 -0.03273717 0.067101285 0.024317868 0.025818117 -0.004799419
-0.041724246 -0.040631026 0.0021525885 0.010212836 0.028719716 -0.058587484 -0.07157428 0.020382667
-0.043704905 -0.0018741941 -0.073243044 0.04809707 0.03405225 0.025354628 -0.0108448835 0.043407977
00000000: 7c9d 6dbd c2da 8fbd 4ea1 86bd 518b 2fbc
00000010: a773 ca3c 4832 c5bc 64b4 873d 86cf 813d
00000020: 6a9b 073d fd53 453d b14d abbc 9096 aaba
00000030: c15a 96bc 550a 72bd 1080 c63c faf2 4ebd
00000040: f137 9bbc 2d8a 4ebd ea6a 103d 7398 f33c
00000050: 777f debc add8 243d 76a0 313d 5c82 a13c
00000060: 48bc 0d3c db88 4b3d 9b59 723d 60ea 9bbd
00000070: 1f00 48bd 4731 98bd c35c 8dbc 24db 31bd
00000080: 3cf7 953c b20c b6bc 7663 9cbd 775e 3c3d
00000090: 49cb 85bd 40d7 64bd 0352 9cbd 64c0 3c3d
000000a0: 1172 3b3c e803 67bd 5692 4cbd 20c4 cabb
000000b0: 9060 923d 3f95 41bb cdbf 7b3c 429b c63a
000000c0: 2845 c0bc 1f00 77bc ca40 0a3d aff7 2dbd
000000d0: 7ecf 01bd 7f5b acbb 8297 803d bb32 9bbd
000000e0: 2f14 27bd 546e 88bd d1e3 4dbc c6bd 673d
000000f0: aa74 6a3d 3a14 7fbd a9cb 44bd 3ee9 2f3c
00000100: 7fbd 20bd a597 57bd becf 82bd 6354 003d
00000110: bb3f 833d ccfb 203d 8ce4 81bd a178 14bd
00000120: 97a0 f2bc 1230 df3c a6ac e73c 64a5 36bd
00000130: 89b1 a33c 0088 babc 5131 8c3d 7b6f 60bd
00000140: cbf6 333d 4fa8 28bd b085 0fbd 11fe f83a
00000150: f480 163d 7f4d 373d 6a9d 6fbd 5e84 81bd
00000160: 81ea 49bb 8287 3f3d 8ef2 d63b 8d43 c8bc
00000170: 0cb2 f23c ed3b 22bd 027d 76bd 5a8f 3f3d
00000180: d09d 853c 976e cebc 8899 733c b70c ac3c
00000190: 3d40 20bc 6bea 5dbd 0a2b ff3c 3b47 8b3d
000001a0: f64b 3cbd 125b c9bc 5690 8f3c 6917 06bd
000001b0: 666c 893d 4436 c73c 8480 d33c 7244 9dbb
000001c0: 0be7 2abd b86c 26bd 7112 0d3b bd53 273c
000001d0: 9c45 eb3c 6ef9 6fbd 8995 92bd 8df9 a63c
000001e0: ea03 33bd 85a7 f5ba 7300 96bd 6f01 453d
000001f0: 5f7a 0b3d 82b4 cf3c bdae 31bc 90cc 313d

convs.0.bn1.weight f4 [128]
1.0049852 1.000725 1.0367937 1.004184 1.0009949 0.99633384 1.015943 1.0119303
1.0021344 1.0015635 1.0108654 1.0149496 1.0006522 1.00112 1.0146602 1.0215932
1.0123258 1.0033959 1.0414989 1.0036031 1.0016642 1.01529 1.0474213 1.021516
1.0077832 1.013637 1.0215778 1.0018522 1.0391854 1.0833669 1.000669 1.0396403
1.049858 1.0483427 1.0012395 1.0016525 1.0133352 1.0082217 1.0215069 0.9993145
1.0598105 1.009603 1.0130825 1.0242116 1.0038663 0.9986576 1.0354546 1.0094844
0.9985418 1.0070565 1.0069485 0.9994124 0.99564284 1.0126299 1.0121564 1.0365307
1.0010687 1.0223964 1.0144255 1.0053307 1.0071772 1.0002174 1.0189865 1.0081007
1.0010356 0.9995119 1.051493 1.0040265 1.0063242 1.0093757 1.003731 0.9977965
1.0031543 1.0086087 1.0230651 1.0104295 0.99859774 0.99580425 1.0003617 1.0283219
1.008499 1.0016708 1.0617954 1.0148289 1.0015774 0.99513763 1.0286044 1.0067618
1.0133312 0.9952438 1.0032599 0.997532 1.0000163 1.0381231 0.9995227 1.0451651
1.0351859 1.0115523 0.99845386 1.0134977 0.99933195 1.0046567 1.0178499 1.0082239
1.0250092 1.0277253 1.0241446 1.0310892 1.0078026 1.0041318 0.9990327 1.0092353
1.002501 1.0058043 1.0103555 1.0033746 1.0072925 1.0165372 1.004487 1.012724
1.0014881 1.0351015 1.0257363 1.0066411 0.9981744 1.0006869 0.99291 1.0036278
00000000: 5ba3 803f c217 803f a8b5 843f 1a89 803f
00000010: 9a20 803f bc0f 7f3f 6c0a 823f ef86 813f
00000020: f145 803f 3c33 803f 0a64 813f dee9 813f
00000030: 5f15 803f b324 803f 63e0 813f 91c3 823f
00000040: e493 813f 476f 803f d64f 853f 1176 803f
00000050: 8836 803f 06f5 813f e711 863f 09c1 823f
00000060: 0aff 803f dbbe 813f 10c3 823f b13c 803f
00000070: 0704 853f c4ab 8a3f ec15 803f ef12 853f
00000080: bf61 863f 1830 863f 9e28 803f 2636 803f
00000090: f8b4 813f 690d 813f bdc0 823f 13d3 7f3f
000000a0: dfa7 873f ac3a 813f b0ac 813f 5e19 833f
000000b0: b17e 803f 06a8 7f3f c789 843f c936 813f
000000c0: 6fa0 7f3f 3ae7 803f b0e3 803f 7ed9 7f3f
000000d0: 73e2 7e3f db9d 813f 578e 813f 0aad 843f
000000e0: 0523 803f e3dd 823f b2d8 813f adae 803f
000000f0: 2feb 803f 2007 803f 266e 823f 7209 813f
00000100: ef21 803f 03e0 7f3f 5397 863f f183 803f
00000110: 3bcf 803f 3933 813f 427a 803f 976f 7f3f
00000120: 5c67 803f 171a 813f ccf3 823f c155 813f
00000130: 1aa4 7f3f 07ed 7e3f da0b 803f 0da0 833f
00000140: 7f16 813f c036 803f e9e8 873f eae5 813f
00000150: b033 803f 57c1 7e3f 4fa9 833f 92dd 803f
00000160: d6b4 813f 4cc8 7e3f d26a 803f 425e 7f3f
00000170: 8900 803f 38e1 843f b8e0 7f3f f8c7 853f
00000180: f980 843f 8c7a 813f ac9a 7f3f 4bba 813f
00000190: 38d4 7f3f 9798 803f e848 823f 7b0d 813f
000001a0: 8033 833f 818c 833f 2c17 833f bbfa 833f
000001b0: adff 803f 6487 803f 9bc0 7f3f 9f2e 813f
000001c0: f451 803f 32be 803f 5453 813f 946e 803f
000001d0: f6ee 803f e41d 823f 0893 803f f1a0 813f
000001e0: c330 803f 357e 843f 544b 833f 9ed9 803f
000001f0: 5c88 7f3f 8216 803f 5a2f 7e3f e076 803f

convs.0.bn1.bias f4 [128]
0.0005340295 0.0008100487 -0.049346447 0.0060695712 0.0013506624 -0.0007801981 0.0013338608 0.0005355345
-0.0018896686 0.0015325908 -0.011345538 -0.00706581 0.00067364523 0.0016264691 -0.0009989867 -0.005833591
-0.009272339 -0.00036861942 -0.008397353 -0.0030353148 0.0021002905 -0.0028735185 -0.0140612135 -9.440489e-05
-0.00090179266 -0.0030642492 -0.0040965253 0.0020464198 -0.015119001 -0.023112373 -0.0025153118 -0.011431695
-0.018799791 0.0018238715 0.00035507188 -0.0023649917 -0.00579312 0.0042478573 -0.0059564156 -0.003769751
-0.008169407 -0.011690364 -0.001110508 -0.016855134 -0.0031955673 5.3183962e-06 -0.0076322593 -0.0065325345
0.0033990426 -0.00016291959 -0.00071855605 0.0014327684 0.0023359093 0.00061181915 -0.0017589784 -0.009846488
-0.0017347729 -0.015804645 -0.013496836 -0.0019882447 0.0021959806 9.3301125e-05 -0.00024930085 -0.0019935006
-0.0002664423 0.000975117 -0.060037896 0.00072979537 -0.0023909553 -0.0040874174 -0.003580835 0.00072380266
-0.0015014097 -0.0017525892 -0.011153989 -0.0071338546 0.0012807325 0.0025855666 -0.00015608204 -0.012805853
-0.0088269375 -0.00075819157 -0.033638768 -0.006495322 -0.0012554923 0.0004080028 -0.016275536 -0.0026641751
-0.005778616 -2.3572906e-05 0.0010576714 0.00040892683 -0.011359593 -0.0282488 -0.00016813741 -0.02269818
-0.03154372 -0.0026922796 0.00025599217 -0.0060091633 -0.0012737043 -0.002179885 -0.0102684405 -0.005748462
-0.013127642 -0.015899112 -0.012134178 -0.02049033 -0.003252087 -0.0009177434 -0.004977953 -0.0068717925
-0.00066002365 -0.0025176425 -0.0014201206 -0.002216048 -0.0019175841 -0.0069747283 -0.0025687916 -0.009036903
-0.0006997988 -0.02834091 -0.017482582 -0.0035571682 0.0009912328 -0.0006324838 0.003580323 -0.00062954385
00000000: 1dfe 0b3a 7359 543a 801f 4abd 41e3 c63b
00000010: b608 b13a 3586 4cba f1d4 ae3a 1d63 0c3a
00000020: c2ae f7ba 37e1 c83a a3e2 39bc 4f88 e7bb
00000030: 9197 303a 3f2f d53a 6ef0 82ba b527 bfbb
00000040: 02eb 17bc 4343 c1b9 0d95 09bc 22ec 46bb
00000050: 07a5 093b a451 3cbb 0161 66bc 3dfb c5b8
00000060: 4866 6cba 92d1 48bb 253c 86bb 3a1d 063b
00000070: b0b5 77bc 2956 bdbc eed7 24bb 014c 3bbc
00000080: 0502 9abc f90e ef3a f128 ba39 fafd 1abb
00000090: 36d4 bdbb 9c31 8b3b 092e c3bb ed0d 77bb
000000a0: fad8 05bc f188 3fbc 778e 91ba c713 8abc
000000b0: b96c 51bb ad74 b236 0818 fabb df0e d6bb
000000c0: 79c2 5e3b 65d5 2ab9 7b5d 3cba bbcb bb3a
000000d0: 0e16 193b 7d62 203a 858d e6ba 2a53 21bc
000000e0: 5261 e3ba be78 81bc d521 5dbc 364d 02bb
000000f0: 71ea 0f3b a9aa c338 98b4 82b9 64a5 02bb
00000100: 48b1 8bb9 fe9e 7f3a 4cea 75bd bd4f 3f3a
00000110: 93b1 1cbb beef 85bb 71ac 6abb 93bd 3d3a
00000120: f3ca c4ba 23b7 e5ba 38bf 36bc 1cc3 e9bb
00000130: 40de a73a 9c72 293b f4a9 23b9 a4cf 51bc
00000140: dc9e 10bc 60c1 46ba cec8 09bd b6d6 d4bb
00000150: 558f a4ba 35e9 d539 4654 85bc 7199 2ebb
00000160: 8b5a bdbb 6ebe c5b7 90a1 8a3a 3b65 d639
00000170: 961d 3abc 076a e7bc 0b4e 30b9 89f1 b9bc
00000180: fd33 01bd f570 30bb b036 8639 84e8 c4bb
00000190: 6df2 a6ba 67dc 0ebb f63c 28bc 985d bcbb
000001a0: 5215 57bc db3e 82bc 6ece 46bc 56db a7bc
000001b0: f720 55bb b894 70ba 191e a3bb c62c e1bb
000001c0: 7005 2dba 08ff 24bb 5723 baba 1e3b 11bb
000001d0: 7257 fbba 438c e4bb 2c59 28bb 850f 14bc
000001e0: b472 37ba 322b e8bc a237 8fbc 611f 69bb
000001f0: 41ec 813a 45cd 25ba daa3 6a3b f907 25ba

convs.0.bn1.running_mean f4 [128]
-0.16976099 -0.06459789 -0.09089598 -0.117930725 -0.015823321 0.0025052514 0.19348076 0.11143549
-0.054869317 0.04108408 -0.11800215 0.045865208 0.123473525 -0.15871632 0.1110638 0.12769459
0.16256547 0.03154436 -0.0566592 0.0037738385 0.07962796 0.06604086 0.08937042 0.17471269
0.16892378 0.17423096 0.0048489464 -0.09970556 -0.054262035 -0.20666672 0.06591724 -0.036710482
-0.044766273 0.028888308 -0.17973794 0.03625486 -0.039757453 -0.0018588477 -0.0742055 0.19137068
0.013985908 -0.14625435 -0.049981873 0.08324449 0.08860294 0.118745126 0.09669503 0.17700838
-0.01865053 -0.12287261 0.08644544 0.048715677 0.0041331872 0.07701746 0.13510443 -0.03360752
-0.025272723 -0.028436225 -0.0064325165 0.17784445 0.08093099 -0.008057038 0.07006557 0.11222704
-0.20495743 0.10538762 -0.044257373 0.058852393 0.13026895 0.11503607 -0.004311873 0.123376206
0.03979939 -0.11356544 -0.0055332277 -0.089038566 0.010668777 -0.06670199 -0.019913971 -0.057538882
-0.03850318 -0.11096573 -0.17425491 0.023807527 0.075113125 0.03526171 -0.10273208 -0.032088373
-0.15919644 0.12246087 -0.08608767 0.09263861 -0.02749959 0.06928787 -0.033049542 0.20721352
-0.090607494 0.08883967 0.25683317 0.21357477 -0.06802713 -0.19976935 0.122208886 -0.034617245
0.023126865 -0.11020336 0.101173796 0.117139064 0.117999315 -0.03251076 -0.040881544 0.080228135
-0.013342408 -0.10099679 0.039656363 0.060435213 0.049435295 -0.15176407 -0.005823156 -0.015308412
0.025733355 -0.2957676 -0.026929226 0.032337688 -7.5132644e-05 -0.038354427 -0.07549283 0.03311577
00000000: d3d5 2dbe e64b 84bd ac27 babd aa85 f1bd
00000010: e99f 81bc 252f 243b d21f 463e 4a38 e43d
00000020: a6be 60bd c847 283d 1cab f1bd 28dd 3b3d
00000030: b0df fc3d 8886 22be 6b75 e33d 5fc2 023e
00000040: 9077 263e a934 013d 7a13 68bd 8152 773b
00000050: fc13 a33d 6e40 873d d707 b73d e2e7 323e
00000060: 5bfa 2c3e 9a69 323e e9e3 9e3b 6e32 ccbd
00000070: de41 5ebd 71a0 53be 9eff 863d bb5d 16bd
00000080: d75c 37bd 2ca7 ec3c 390d 38be fa7f 143d
00000090: b6d8 22bd 94a4 f3ba 0ef9 97bd adf6 433e
000000a0: 2625 653c b3c3 15be cbb9 4cbd 167c aa3d
000000b0: 7575 b53d a530 f33d 0b08 c63d af41 353e
000000c0: ffc8 98bc a3a4 fbbd 4f0a b13d 178a 473d
000000d0: b06f 873b 54bb 9d3d d158 0a3e 0aa8 09bd
000000e0: be08 cfbc 16f3 e8bc dcc7 d2bb db1c 363e
000000f0: 26bf a53d ab01 04bc 8a7e 8f3d 4ad7 e53d
00000100: 5ce0 51be 77d5 d73d 3847 35bd 350f 713d
00000110: 3965 053e 0898 eb3d 9d4a 8dbb aaac fc3d
00000120: af04 233d ff94 e8bd 1450 b5bb da59 b6bd
00000130: 18cc 2e3c 0e9b 88bd a022 a3bc e4ad 6bbd
00000140: 83b5 1dbd 0042 e3bd e16f 32be 0108 c33c
00000150: e9d4 993d 956e 103d 3265 d2bd 196f 03bd
00000160: 6404 23be c4cc fa3d bb4e b0bd 50b9 bd3d
00000170: d246 e1bc cce6 8d3d f55e 07bd c82f 543e
00000180: 6c90 b9bd 93f1 b53d a37f 833e 58b3 5a3e
00000190: cf51 8bbd 5690 4cbe a748 fa3d d0ca 0dbd
000001a0: 8d74 bd3c 4db2 e1bd 3534 cf3d 9be6 ef3d
000001b0: a0a9 f13d 012a 05bd 6873 27bd a64e a43d
000001c0: 1e9a 5abc 68d7 cebd b66e 223d ea8a 773d
000001d0: aa7c 4a3d 0a68 1bbe 2cd0 bebb 22d0 7abc
000001e0: c2ce d23c da6e 97be ae9a dcbc 8674 043d
000001f0: 8890 9db8 8819 1dbd fc9b 9abd 67a4 073d

convs.0.bn1.running_var f4 [128]
0.0034980664 0.006702788 0.01342844 0.0070222015 0.0029815955 0.0066630244 0.005697131 0.007227733
0.006561781 0.006261998 0.012001234 0.0048444364 0.0063674166 0.0055742795 0.008292253 0.0073116976
0.005903336 0.006916586 0.015516703 0.0037774867 0.0080013545 0.006003122 0.012163278 0.0056853383
0.0069873245 0.008946708 0.0072323685 0.0036215524 0.009286385 0.013426535 0.003623145 0.012589752
0.015048261 0.010697655 0.0048537627 0.0057148375 0.0076233814 0.011876621 0.012972273 0.006009691
0.012063294 0.009461948 0.010983547 0.008174371 0.008673673 0.0039069485 0.009850325 0.0090341475
0.0056883967 0.0068381373 0.006263738 0.0041920287 0.0066866255 0.010562167 0.005237595 0.006676134
0.0047195214 0.011752526 0.012762117 0.0058770166 0.0027976832 0.0052236947 0.0071592997 0.0035765185
0.006413504 0.00496221 0.011190333 0.011176834 0.0029868106 0.005203252 0.008765709 0.006801063
0.007054677 0.005421752 0.012988325 0.014034678 0.00982114 0.00530535 0.0076759607 0.008652831
0.00771353 0.008307406 0.02647288 0.007388105 0.008863369 0.0062635327 0.029779188 0.0076978058
0.0073227677 0.008599749 0.010715545 0.00888183 0.008962851 0.01558078 0.005319805 0.0097225355
0.018005304 0.014702129 0.007907974 0.006512665 0.011458637 0.011379849 0.013268546 0.011215915
0.017274873 0.017976623 0.012894372 0.009707647 0.008869361 0.004586309 0.008475011 0.01385563
0.0049329703 0.004863006 0.01191241 0.0048334 0.006202329 0.013639012 0.006624635 0.0088236295
0.0064205616 0.012923026 0.011547769 0.0094234785 0.0048580393 0.0063823727 0.0146159325 0.009581034
00000000: d13f 653b 10a3 db3b f602 5c3c 7f1a e63b
00000010: df66 433b 8055 da3b 00af ba3b 9ed6 ec3b
00000020: 3504 d73b 7231 cd3b d3a0 443c 14be 9e3b
00000030: c3a5 d03b 72a8 b63b 3bdc 073c f796 ef3b
00000040: c670 c13b 87a4 e23b c539 7e3c b68f 773b
00000050: 1d18 033c d6b5 c43b 7c48 473c 134c ba3b
00000060: edf5 e43b 3795 123c 81fd ec3b 9157 6d3b
00000070: ec25 183c f8fa 5b3c 4972 6d3b 3f45 4e3c
00000080: fb8c 763c 3845 2f3c 500c 9f3b 8843 bb3b
00000090: 8fcd f93b 2996 423c a889 543c f1ec c43b
000000a0: 1fa5 453c 4906 1b3c 56f4 333c cced 053c
000000b0: 051c 0e3c dc05 803b 4263 213c f603 143c
000000c0: bb65 ba3b 7412 e03b 0b40 cd3b 495d 893b
000000d0: 7b1b db3b f00c 2d3c 22a0 ab3b 79c3 da3b
000000e0: 37a6 9a3b ab8d 403c 3318 513c fd93 c03b
000000f0: 5659 373b 872b ab3b 8f98 ea3b 0664 6a3b
00000100: 5f28 d23b 099a a23b a957 373c 0a1f 373c
00000110: 5ebe 433b 0b80 aa3b 0c9e 0f3c 74db de3b
00000120: eb2a e73b f4a8 b13b fccc 543c b5f1 653c
00000130: d9e8 203c 80d8 ad3b a086 fb3b 9bc4 0d3c
00000140: c8c1 fc3b c91b 083c a7dd d83c eb17 f23b
00000150: aa37 113c 523e cd3b 7cf3 f33c e03d fc3b
00000160: d4f3 ef3b f6e5 0c3c 4190 2f3c 1885 113c
00000170: ecd8 123c 8746 7f3c c251 ae3b 454b 1f3c
00000180: dc7f 933c 33e1 703c 7290 013c 3268 d53b
00000190: 02bd 3b3c 8c72 3a3c 5164 593c f5c2 373c
000001a0: 0984 8d3c b643 933c eb42 533c d30c 1f3c
000001b0: cc50 113c c048 963b c6da 0a3c b902 633c
000001c0: c1a4 a13b da59 9f3b 452c 433c 7f61 9e3b
000001d0: e83c cb3b 2a76 5f3c 7713 d93b fc90 103c
000001e0: 9363 d23b 1abb 533c db32 3d3c ef64 1a3c
000001f0: 3030 9f3b 3923 d13b aa77 6f3c c5f9 1c3c

convs.0.bn2.weight f4 [64]
0.9791141 0.9922394 1.2021402 0.9773643 1.0014858 0.9925234 0.98719007 0.98563546
0.9883092 0.9884273 0.97769195 1.0007014 0.977897 0.95894873 0.9872986 1.0128233
0.9930346 0.968616 1.0178368 1.0094033 0.97264546 1.0107073 1.0566022 1.0101314
1.0239986 0.9569118 1.0090102 0.9966998 1.0368197 1.0389893 0.9737673 1.0301043
1.0081952 1.0415833 0.9692452 1.0158457 0.98385406 0.9945582 1.0032729 0.99710506
1.0538402 1.004047 1.0264249 1.0375825 0.9721713 0.9853962 1.0163671 1.0360689
0.9640973 1.0009621 1.0117863 0.97237295 0.9749584 1.0040236 1.0059237 0.9826717
1.0096804 1.0218891 1.0151522 0.9842315 0.9856259 0.9798603 0.9675016 1.0076205
00000000: 39a7 7a3f 6703 7e3f bbdf 993f 8c34 7a3f
00000010: b030 803f 0316 7e3f 7db8 7c3f 9b52 7c3f
00000020: d501 7d3f 9209 7d3f 054a 7a3f fc16 803f
00000030: 7557 7a3f aa7d 753f 9abf 7c3f 32a4 813f
00000040: 8437 7e3f 38f7 773f 7a48 823f 2134 813f
00000050: 4bff 783f db5e 813f be3e 873f fc4b 813f
00000060: 6312 833f 2cf8 743f 3f27 813f b827 7f3f
00000070: 82b6 843f 9afd 843f d048 793f 75da 833f
00000080: 8a0c 813f 9a52 853f 7420 783f 3b07 823f
00000090: dcdd 7b3f 5e9b 7e3f 3f6b 803f 4742 7f3f
000000a0: 3ce4 863f 9d84 803f e461 833f 81cf 843f
000000b0: 38e0 783f ed42 7c3f 5118 823f e89d 843f
000000c0: 15cf 763f 871f 803f 3782 813f 6fed 783f
000000d0: e096 793f d883 803f 1cc2 803f 5f90 7b3f
000000e0: 353d 813f 43cd 823f 82f0 813f 98f6 7b3f
000000f0: fb51 7c3f 20d8 7a3f 2fae 773f b5f9 803f

convs.0.bn2.bias f4 [64]
-0.013044655 -0.010534324 0.012094352 -0.012061541 -0.0066075474 -0.0060458677 -0.010063595 -0.011540653
-0.009962472 -0.011516762 -0.011200354 -0.015086509 -0.0115783475 -0.016672943 -0.011834617 -0.016607542
-0.01880303 -0.011503409 -0.039213367 -0.0041659283 -0.013243961 -0.012253505 -0.014411543 -0.009864929
0.005902939 -0.019828139 -0.014343014 -0.0030884724 -0.017340004 -0.030762732 -0.0014529852 -0.0045014424
-0.022646388 -0.01555575 -0.013087119 -0.008076878 -0.014077066 -0.012330003 -0.015861554 -0.01261957
-0.013484135 -0.020400506 -0.010186482 -0.0053220885 -0.011602686 -0.007041044 -0.016899625 -0.008451696
-0.019676035 -0.00854243 -0.010507337 -0.0109919105 -0.014201795 -0.023528567 -0.014835574 -0.016083468
-0.0057442556 -0.015190531 -0.004306578 -0.0074745975 -0.010304481 -0.007818074 -0.014791585 -0.007970959
00000000: 40b9 55bc 2898 2cbc 6427 463c c59d 45bc
00000010: 2084 d8bb 6a1c c6bb c7e1 24bc 0215 3dbc
00000020: a339 23bc cdb0 3cbc b181 37bc 682d 77bc
00000030: 1cb3 3dbc b295 88bc fbe5 41bc 8a0c 88bc
00000040: d008 9abc cb78 3cbc 329e 20bd 5782 88bb
00000050: 33fd 58bc edc2 48bc 641e 6cbc 83a0 21bc
00000060: 716d c13b 9f6e a2bc f6fe 6abc f867 4abb
00000070: a00c 8ebc 2002 fcbc 1872 beba d680 93bb
00000080: eb84 b9bc 8bdd 7ebc 5b6b 56bc e254 04bc
00000090: 7fa3 66bc c803 4abc 17f0 81bc 50c2 4ebc
000000a0: 90ec 5cbc f61e a7bc 34e5 26bc ea64 aebb
000000b0: 3119 3ebc 8fb8 e6bb 1571 8abc fb78 0abc
000000c0: a32f a1bc 8cf5 0bbc f726 2cbc 6a17 34bc
000000d0: a5ae 68bc fbbe c0bc e810 73bc 7ac1 83bc
000000e0: 4f3a bcbb b4e1 78bc 321e 8dbb 78ed f4bb
000000f0: 20d4 28bc 6117 00bc 6758 72bc a098 02bc

convs.0.bn2.running_mean f4 [64]
5.042362 4.8163157 4.613441 4.7573915 4.836694 5.5843263 4.876304 4.586484
5.3445272 5.2276387 5.2318635 4.687022 5.250377 5.248947 4.8790555 4.8374023
4.8945913 5.5889783 4.7587857 5.1613145 5.4471474 5.234786 4.6452446 4.4575477
5.245864 5.134782 4.486246 5.192576 4.778569 4.907778 4.8624563 4.5398984
4.536221 4.215465 5.174951 5.0836167 5.1752977 4.8334 5.1185083 5.4395757
4.3482027 5.6754093 5.14577 4.7030315 4.80975 5.196447 5.1691313 5.541158
5.1198883 4.775315 5.675642 5.6285357 4.860342 5.2698717 5.3573275 5.1786065
5.453642 4.6692605 5.121747 4.760961 4.84067 4.983143 4.4220533 5.1160955
00000000: 085b a140 421f 9a40 4fa1 9340 8d3c 9840
00000010: 32c6 9a40 cdb2 b240 af0a 9c40 7ac4 9240
00000020: 5e06 ab40 d148 a740 6d6b a740 16fc 9540
00000030: 1703 a840 60f7 a740 3921 9c40 00cc 9a40
00000040: 7ea0 9c40 e9d8 b240 f947 9840 7d29 a540
00000050: 084f ae40 5e83 a740 d8a5 9440 3ba4 8e40
00000060: 1ede a740 2250 a440 548f 8f40 9529 a640
00000070: 0aea 9840 840c 9d40 3e99 9b40 d946 9140
00000080: b928 9140 17e5 8640 3399 a540 fdac a240
00000090: 0a9c a540 36ab 9a40 d2ca a340 0111 ae40
000000a0: 7a24 8b40 f49c b540 26aa a440 3c7f 9640
000000b0: 79e9 9940 4b49 a640 8669 a540 2b51 b140
000000c0: 20d6 a340 61cf 9840 dc9e b540 f71c b440
000000d0: ec87 9b40 caa2 a840 3a6f ab40 25b7 a540
000000e0: 3c84 ae40 956a 9540 5ae5 a340 cb59 9840
000000f0: c5e6 9a40 e875 9f40 7681 8d40 0eb7 a340

convs.0.bn2.running_var f4 [64]
5.135272 4.9946527 4.5837793 5.0896583 6.53792 3.4852893 3.5045476 4.656436
5.2633166 3.4727743 1.6749145 3.5436645 3.604383 12.309786 2.186343 2.3676462
5.793289 11.937891 1.8568604 4.112319 16.590357 2.9741278 1.8079308 2.6449924
6.0068254 3.1751678 1.3551171 3.7404385 8.138181 4.074479 7.7682757 2.429049
3.7844398 3.3172734 7.750973 3.6876035 4.7458625 5.2288966 3.3911722 6.583334
1.1252438 6.7554545 4.866422 2.7386832 4.032741 8.251295 3.3644648 2.9461782
12.0004015 4.2641363 4.26634 20.165466 8.465419 5.3415885 5.0485377 5.051744
5.4987407 1.67274 1.7637186 5.199278 8.415919 13.581944 2.8528826 5.249272
00000000: 2654 a440 32d4 9f40 52ae 9240 7bde a240
00000010: a436 d140 fb0e 5f40 824a 6040 8601 9540
00000020: 176d a840 ef41 5e40 9963 d63f 66cb 6240
00000030: 36ae 6640 e2f4 4441 0bed 0b40 8487 1740
00000040: a062 b940 9a01 3f41 9aad ed3f 1e98 8340
00000050: 0db9 8441 1c58 3e40 476a e73f 8e47 2940
00000060: ea37 c040 f335 4b40 7a74 ad3f 5863 6f40
00000070: fd35 0241 2262 8240 b795 f840 8a75 1b40
00000080: 4334 7240 354e 5440 f907 f840 b201 6c40
00000090: 1bde 9740 1f53 a740 f708 5940 acaa d240
000000a0: fd07 903f af2c d840 bbb9 9b40 9646 2f40
000000b0: 370c 8140 4e05 0441 6453 5740 2f8e 3c40
000000c0: a501 4041 ce73 8840 db85 8840 e052 a141
000000d0: 5b72 0741 4bee aa40 9f8d a140 e3a7 a140
000000e0: aff5 af40 581c d63f 88c1 e13f 7c60 a640
000000f0: 9ba7 0641 a54f 5941 a195 3640 09fa a740

convs.1.fc_full.weight f4 [128, 169]
-0.07582576 -0.05366012 0.039783906 -0.031658597 -0.035284158 -0.0063466695 -0.08076559 0.015601416
0.013230736 0.07617015 -0.007255293 0.07025222 -0.05191207 0.021605622 -0.08914343 0.038374465
-0.006861905 0.04028788 0.071553804 -0.11386442 0.052737813 0.030309541 -0.030537874 0.03024585
0.04929586 -0.040293645 0.066082016 -0.030653842 -0.023730423 -0.013988567 0.013323973 0.07289591
-0.042674385 0.018329533 0.039302565 0.02482079 0.00020154615 -0.048665408 0.021401225 -0.091714665
-0.01936978 -0.05228638 0.001602086 -0.036534235 0.04847395 0.010590992 -0.007487414 -0.06614794
0.013568174 -0.095015146 -0.008088835 0.015680907 -0.0033136064 -0.07257626 0.041398786 0.07504189
-0.07435858 -0.031216135 -0.014728095 -0.0028622947 -0.058454476 -0.034453586 -0.05995013 0.025911547
0.0142465765 0.03903913 -0.08578904 0.007801105 -0.05338025 0.06137931 -0.020788813 0.0024786366
0.014299348 0.065310545 -0.05949691 0.03524564 -0.0008299221 -0.020304795 -0.030895606 -0.049463075
0.07130956 0.060009982 0.04855546 -0.050416596 -0.038027145 -0.08937848 -0.051329065 0.02758284
0.039440773 0.06414191 -0.047481228 0.06772939 0.07067037 -0.04737483 0.04230051 0.044147227
-0.028144615 -0.011575648 -0.004235502 0.010519203 0.07696949 0.012525302 0.015052516 -0.075004645
-0.029377596 0.0058327722 0.05256456 0.030241469 0.03795886 -0.032668438 -0.01595481 0.04961034
0.04106123 -0.0681544 -0.029720878 0.022943921 -0.052872352 -0.056486167 0.058442086 -0.011316526
0.055927765 -0.06522884 0.021496512 0.054479036 -0.051304877 0.054482847 -0.013627973 0.022663359
-0.07308849 -0.041622978 -0.064918146 -0.02008226 0.072196 -0.036779564 0.024791563 0.0766793
0.045369767 0.046735458 -0.04223436 -0.06296171 0.0016709415 0.020026444 -0.019185707 0.0017211644
-0.06010567 0.0038534394 -0.07129648 -0.043186706 -0.0024825493 0.030289946 0.049655404 0.060473967
-0.0390084 -0.055124953 -0.006665702 -0.028487219 -0.051053282 -0.013744292 -0.01992407 -0.06562121
0.0692205 -0.021555489 -0.044783015 -0.063905336 0.011690281 -0.05772932 -0.027154814 0.05865278
0.024835221 -0.04831421 -0.03716282 0.048020873 0.0053390814 0.05122305 0.019655956 -0.034391005
0.066662535 0.0043187747 0.0055901576 0.025440102 -0.03367442 0.02305563 -0.027716827 -0.006475038
0.018317353 -0.018202845 0.04770746 0.039575316 0.050448667 0.056695715 0.00427827 0.07867857
0.058558132 0.024642894 -0.050331827 -0.03327673 0.07949786 0.04985373 -0.027302228 -0.05425932
0.06347232 -0.008195893 0.00523863 -0.036345497 -0.037251625 -0.055760726 -0.07325881 0.016143551
-0.040604856 -0.00055013143 0.027496533 0.07379768 0.07130405 0.014380471 -0.044584077 -0.01323087
0.020899925 0.019678822 0.051349085 0.046344426 -0.05016476 -0.0026405642 0.07500393 0.057408508
-0.07321206 0.0713079 -0.072354555 -0.05741813 -0.005594665 -0.071732566 -0.06742802 -0.039723214
-0.044256497 0.053338986 0.017673844 0.0583856 0.08045509 0.020450255 0.05857454 0.002838805
-0.059829365 -0.057532083 -0.07102991 0.06849035 0.067294106 -0.04159707 0.06603671 -0.064144254
0.04358025 0.066193365 -0.001566649 -0.022320999 0.07082793 -0.062150408 -0.05315575 0.06433788
00000000: 894a 9bbd b7ca 5bbd 73f4 223d 72ac 01bd
00000010: 1f86 10bd b9f7 cfbb 6e68 a5bd 159d 7f3c
00000020: bbc5 583c 18ff 9b3d cfbd edbb 65e0 8f3d
00000030: c0a1 54bd 46fe b03c d590 b6bd 8b2e 1d3d
00000040: d5d9 e0bb e704 253d cd8a 923d c031 e9bd
00000050: 9b03 583d b74b f83c 902a fabc 25c6 f73c
00000060: 75ea 493d f30a 25bd 0256 873d c41d fbbc
00000070: 4e66 c2bc 4d30 65bc cb4c 5a3c 734a 953d
00000080: 56cb 2ebd d127 963c bafb 203d f854 cb3c
00000090: 2256 5339 6155 47bd 9f51 af3c e6d4 bbbd
000000a0: 5fad 9ebc 3e2a 56bd 16fd d13a eca4 15bd
000000b0: 9f8c 463d d785 2d3c fb58 f5bb 9278 87bd
000000c0: 0c4d 5e3c 4d97 c2bd 0887 04bc 3f75 803c
000000d0: 1729 59bb dda2 94bd c691 293d 90af 993d
000000e0: 5049 98bd fbb8 ffbc 1c4e 71bc 5695 3bbb
000000f0: f66d 6fbd 341f 0dbd 448e 75bd 7444 d43c
00000100: 796a 693c 7fe7 1f3d 2ab2 afbd 69a0 ff3b
00000110: 40a5 5abd df68 7b3d 4d4d aabc 9f70 223b
00000120: d047 6a3c 89c1 853d 08b3 73bd bb5d 103d
00000130: 218f 59ba 3e56 a6bc c818 fdbc cb99 4abd
00000140: bf0a 923d 07cd 753d 17e2 463d a281 4ebd
00000150: 5ac2 1bbd 110c b7bd 6d3e 52bd 68f5 e13c
00000160: a68c 213d d55c 833d ad7b 42bd b5b5 8a3d
00000170: a0bb 903d 1c0c 42bd 4d43 2d3d b9d3 343d
00000180: 898f e6bc c9a7 3dbc f7c9 8abb bc58 2c3c
00000190: 2ea2 9d3d ed36 4d3c d49e 763c 099c 99bd
000001a0: 49a9 f0bc d720 bf3b f04d 573d f5bc f73c
000001b0: c07a 1b3d 57cf 05bd a9b3 82bc 3634 4b3d
000001c0: d22f 283d 8994 8bbd 3379 f3bc e4f4 bb3c
000001d0: ae90 58bd 0a5e 67bd f860 6f3d f368 39bc
000001e0: 8314 653d b396 85bd 7419 b03c 6925 5f3d
000001f0: 1025 52bd 6829 5f3d dd47 5fbc 82a8 b93c
00000200: 6baf 95bd db7c 2abd cef3 84bd 8d83 a4bc
00000210: 7fdb 933d 2ba6 16bd ad17 cb3c 090a 9d3d
00000220: a6d5 393d ae6d 3f3d f0fd 2cbd 12f2 80bd
00000230: 7e03 db3a 7f0e a43c 582b 9dbc b298 e13a
00000240: 5d31 76bd fc89 7c3b e403 92bd 8be4 30bd
00000250: 44b2 22bb 9f22 f83c 7763 4b3d 8db3 773d
00000260: 46c7 1fbd b4ca 61bd f66b dabb 075e e9bc
00000270: 3f1d 51bd bd2f 61bc ce37 a3bc 6a64 86bd
00000280: 7ac3 8d3d 2395 b0bc 656e 37bd cde0 82bd
00000290: 9888 3f3c 9475 6cbd c673 debc e63d 703d
000002a0: 3c73 cb3c 1fe5 45bd 0b38 18bd 89b1 443d
000002b0: 76f3 ae3b 43cf 513d 8705 a13c 95dd 0cbd
000002c0: 5e86 883d 8284 8d3b a42d b73b c367 d03c
000002d0: 30ee 09bd 29df bc3c 660e e3bc 8e2c d4bb
000002e0: 460e 963c 221e 95bc e668 433d ba19 223d
000002f0: 43a3 4e3d c439 683d bb30 8c3b 3b22 a13d
00000300: a7da 6f3d e5df c93c bf28 4ebd 2e4d 08bd
00000310: c6cf a23d 6d33 4c3d eca8 dfbc 053f 5ebd
00000320: c7fd 813d 1148 06bc d0a8 ab3b 04df 14bd
00000330: 2995 18bd 5c65 64bd b708 96bd 7b3f 843c
00000340: 4751 26bd b236 10ba 6940 e13c 3d23 973d
00000350: dc07 923d 119c 6b3c cb9d 36bd 4ac6 58bc
00000360: 5236 ab3c 7b35 a13c 6b53 523d a7d3 3d3d
00000370: 9079 4dbd 510d 2dbb a99b 993d 2f25 6b3d
00000380: 34f0 95bd e009 923d a02e 94bd 462f 6bbd
00000390: 7453 b7bb 86e8 92bd b417 8abd cfb4 22bd
000003a0: 4d46 35bd fb79 5a3d bdc8 903c bd25 6f3d
000003b0: a3c5 a43d 4b87 a73c dbeb 6f3d 3f0b 3a3b
000003c0: a30f 75bd c3a6 6bbd 2178 91bd ab44 8c3d
000003d0: 7ed1 893d b061 2abd 413e 873d 105e 83bd
000003e0: 3481 323d 6390 873d 0458 cdba 87da b6bc
000003f0: 3c0e 913d 6d91 7ebd d8b9 59bd 94c3 833d

convs.1.fc_full.bias f4 [128]
0.028303737 -0.054450057 -0.009741578 -0.019453572 0.056856297 0.02865983 0.017106865 -0.033328358
0.024555275 0.03392589 -0.039373558 -0.028140867 -0.06822561 -0.023185743 -0.016701197 0.068300895
-0.06527081 0.011720968 -0.0017463523 -0.008953048 0.02966338 0.055781808 -0.031900164 -0.041493505
-0.032040767 -0.030819835 -0.068699285 0.06581818 0.019727297 0.01258655 -0.0062044933 -0.069105655
-0.002431042 0.04513988 -0.045458756 -0.071568884 -0.016288826 0.02791078 0.013943784 0.063956685
-0.03769899 0.03468514 0.055088732 -0.06834499 0.06319713 0.009534767 -0.032568008 -0.031438265
-0.018277092 0.07164594 0.067128256 0.04513271 -0.032392103 0.037302546 0.021296402 0.012623105
0.07379152 -0.039138783 -0.07517915 0.003045976 -0.024173895 0.041607976 -0.033275153 0.006617452
0.06400923 0.047125544 0.047845457 0.0641581 0.07202411 0.07543995 0.017899252 -0.05003284
-0.05324959 0.051740564 0.06586599 -0.05525115 0.06958235 -0.0704727 0.02826188 -0.064178556
-0.07488458 -0.067761496 -0.018972974 -0.025207892 -0.023370221 -0.058830023 0.035966285 0.022493979
-0.05289826 -0.033389132 -0.02874561 0.02436279 0.008063672 -0.05497931 0.052265026 0.056650843
-0.03505353 -0.063049875 -0.014120978 -0.0708273 0.027383517 -0.035601277 0.019528884 0.030570518
0.034596648 0.07123189 -0.053276546 -0.06500668 -0.052111275 -0.01675179 0.047227327 -0.008582668
0.0291622 -0.006771577 -0.025025042 0.06591619 -0.058887176 -0.057547435 -0.076121695 -0.07525152
0.041571043 0.033687454 -0.06814002 0.019913875 -0.05959861 0.03019898 0.03532357 0.019970383
00000000: 3ddd e73c 0607 5fbd 249b 1fbc 195d 9fbc
00000010: 26e2 683d 05c8 ea3c b223 8c3c 5183 08bd
00000020: 2528 c93c e0f5 0a3d 2b46 21bd ad87 e6bc
00000030: deb9 8bbd 07f0 bdbc f3d0 88bc 57e1 8b3d
00000040: b4ac 85bd 4e09 403c dce5 e4ba ceaf 12bc
00000050: 9e00 f33c 777b 643d bfa9 02bd 18f5 29bd
00000060: 2e3d 03bd e179 fcbc 36b2 8cbd afcb 863d
00000070: 249b a13c d137 4e3c 104f cbbb 4487 8dbd
00000080: 1e52 1fbb 98e4 383d f632 3abd b592 92bd
00000090: 2570 85bc 26a5 e43c 7874 643c b9fb 823d
000000a0: 426a 1abd 0112 0e3d b9a4 613d 75f8 8bbd
000000b0: 7f6d 813d b637 1c3c 0866 05bd 69c5 00bd
000000c0: d7b9 95bc 1bbb 923d 8a7a 893d 14dd 383d
000000d0: 95ad 04bd 8eca 183d cb75 ae3c 24d1 4e3c
000000e0: 0220 973d fd4f 20bd 87f7 99bd ff9e 473b
000000f0: 5508 c6bc 206d 2a3d 874b 08bd 36d7 d83b
00000100: 4517 833d b706 413d 99f9 433d 5265 833d
00000110: 6081 933d 4380 9a3d 74a1 923c 3cef 4cbd
00000120: 3e1c 5abd eaed 533d c0e4 863d 084f 62bd
00000130: 3181 8e3d fe53 90bd 7585 e73c 0c70 83bd
00000140: 165d 99bd 8ac6 8abd 366d 9bbc c880 cebc
00000150: e872 bfbc c0f7 70bd 6251 133d 4b45 b83c
00000160: d9ab 58bd 0bc3 08bd ea7b ebbc 7994 c73c
00000170: 7e1d 043c fc31 61bd da13 563d b70a 683d
00000180: 4a94 0fbd 4b20 81bd ad5b 67bc e70d 91bd
00000190: 6653 e03c a5d2 11bd 0afb 9f3c 066f fa3c
000001a0: 37b5 0d3d 06e2 913d 8238 5abd 3922 85bd
000001b0: a272 55bd 0d3b 89bc 7171 413d 529e 0cbc
000001c0: 91e5 ee3c 1be4 ddbb 5101 cdbc 11ff 863d
000001d0: ae33 71bd dcb6 6bbd b1e5 9bbd 781d 9abd
000001e0: 6646 2a3d dbfb 093d ff8c 8bbd 6c22 a33c
000001f0: ac1d 74bd da63 f73c 73af 103d ee98 a33c

convs.1.bn1.weight f4 [128]
1.0086929 1.001145 1.0140618 1.0395998 1.0030007 1.0109009 1.0073127 1.0086768
1.0196469 0.99779534 1.0367439 1.0049752 1.0085068 1.0158038 1.0091296 1.000627
1.00572 1.0011659 1.0003358 1.0022845 1.0011053 1.0140368 1.0358 1.0074968
1.0126191 1.0064834 1.01184 1.0029707 1.0015504 0.996742 1.0020775 1.0281786
1.0013593 1.0141194 1.0046546 1.005141 1.0049094 1.0124787 1.0064863 1.0101603
1.0089947 1.0139728 1.006079 1.0065392 1.0037904 1.0046009 1.0027742 1.0003787
1.05828 1.0026373 1.0175948 1.0115017 1.0006245 1.0215524 1.022132 1.0178318
1.0212164 1.0157259 1.001527 1.0091975 1.004517 0.9994988 1.0018128 1.0224059
1.006004 0.9989556 1.0329089 1.0574425 1.0005227 1.0029244 1.002951 1.0116063
1.010267 1.0028527 1.0356873 1.0066824 1.000135 1.0130756 1.0026621 1.0068908
0.99326867 1.0018655 1.0087061 1.0055025 1.0003569 0.995657 1.0216527 1.0062922
1.0059698 1.0010179 1.0141021 1.0009886 1.008445 0.9991197 1.0086914 1.0215043
1.0023457 1.0029849 1.0241274 1.0036094 1.0063655 1.0201308 0.99975914 1.001187
1.013553 1.0156745 1.0273349 1.0011762 1.0081697 1.0104938 1.0023506 1.0029413
1.0221977 1.0018051 1.0195009 0.9958073 1.0128436 1.007933 1.0170286 1.0289564
1.0155516 1.0039746 1.011731 0.99903095 1.00994 1.004814 1.0053897 1.0096374
00000000: d91c 813f 8525 803f c7cc 813f 9b11 853f
00000010: 5462 803f 3365 813f 9fef 803f 521c 813f
00000020: ca83 823f 846f 7f3f 06b4 843f 07a3 803f
00000030: c016 813f dc05 823f 292b 813f 8c14 803f
00000040: 6fbb 803f 3426 803f 010b 803f dc4a 803f
00000050: 3824 803f f5cb 813f 1895 843f a8f5 803f
00000060: 819d 813f 73d4 803f f983 813f 5861 803f
00000070: ce32 803f 7c2a 7f3f 1344 803f 5b9b 833f
00000080: 8b2c 803f aace 813f 8698 803f 76a8 803f
00000090: dfa0 803f e798 813f 8bd4 803f ef4c 813f
000000a0: bd26 813f dcc9 813f 32c7 803f 47d6 803f
000000b0: 347c 803f c396 803f e85a 803f 690c 803f
000000c0: b875 873f 6b56 803f 8c40 823f e378 813f
000000d0: 7714 803f 3bc2 823f 39d5 823f 5048 823f
000000e0: 38b7 823f 4e03 823f 0932 803f 622d 813f
000000f0: 0394 803f 27df 7f3f 673b 803f 32de 823f
00000100: bdc4 803f 8ebb 7f3f 5c36 843f 475a 873f
00000110: 2111 803f d45f 803f b360 803f 517c 813f
00000120: 6e50 813f 7a5d 803f 6791 843f f8da 803f
00000130: 6c04 803f 76ac 813f 3b57 803f cce1 803f
00000140: db46 7e3f 213d 803f 481d 813f 4eb4 803f
00000150: b20b 803f 61e3 7e3f 84c5 823f 2fce 803f
00000160: 9ec3 803f 5b21 803f 19ce 813f 6520 803f
00000170: ba14 813f 4fc6 7f3f cd1c 813f a7c0 823f
00000180: dd4c 803f cf61 803f 9b16 833f 4676 803f
00000190: 96d0 803f a593 823f 37f0 7f3f e526 803f
000001a0: 1bbc 813f 9f01 823f b67f 833f 8b26 803f
000001b0: b40b 813f dc57 813f 064d 803f 6160 803f
000001c0: 60d7 823f 263b 803f 017f 823f 3aed 7e3f
000001d0: dca4 813f f303 813f fe2d 823f d8b4 833f
000001e0: 98fd 813f 3d82 803f 6780 813f 7ec0 7f3f
000001f0: b745 813f bf9d 803f 9cb0 803f cc3b 813f
