code_from_previous_workers/cgcnnv/models/checkpoint.pth.tar (torch, 673734 bytes, 58 tensors)

embedding.weight f4 [64, 92]
000000 02 0a f3 bc d7 ed 99 bd 0e 93 7b bd 64 de 14 3c
       -0.029667858 -0.075160675 -0.06141954 0.009086225
000010 d0 fe 8d 3c ac bc fc bc 54 e3 64 bb b8 54 d4 3d
       0.017333418 -0.030851685 -0.0034925537 0.10367721
000020 a0 02 01 bc 0e 10 84 3d 9e d5 e1 3d e7 75 92 bc
       -0.007874161 0.06448375 0.11027072 -0.017878486
000030 86 07 ed 3c 7a 14 42 3c 13 be d2 bc 2d 30 ab 3d
       0.028934252 0.011845702 -0.0257254 0.08358798
000040 93 1e 89 3d 49 cb 46 3d 7b 7b 54 bd 89 58 98 bd
       0.06695285 0.04853371 -0.051875573 -0.07438762
000050 a4 8c e7 bd ae f3 9e bd 8d 91 86 3d 75 39 85 3b
       -0.11306122 -0.07761322 0.0657073 0.0040656873
000060 e7 47 db bd 81 26 c0 3d 3a db b1 bd 79 cc 42 bd
       -0.10707074 0.09382344 -0.08684392 -0.04755828
000070 92 a0 ab bc d8 7c e4 3c 05 d0 30 3d 55 17 f3 3d
       -0.02095059 0.027891561 0.043167133 0.118696846
000080 6c 5d 5c bd 29 a6 05 bc 01 f4 a9 bd be 79 35 bd
       -0.05380003 -0.008157291 -0.08298493 -0.044305556
000090 53 3e 47 bd d1 ec 8d bd 10 3a 13 3d 6e 56 ef 3d
       -0.04864342 -0.06929935 0.035944045 0.11686407
0000a0 25 d2 90 3d dd 13 f8 3d bf 27 93 3c f9 3c a2 3d
       0.07071332 0.121131636 0.017963288 0.07921786
0000b0 04 38 78 bc 97 5e 3d bd 7d cd 99 bd 55 c0 c1 bd
       -0.015150074 -0.046232786 -0.07509897 -0.094605125
0000c0 4a 7b 18 bd f8 ec 78 3d 61 a4 39 3c 19 10 74 3d
       -0.037226953 0.060772866 0.011330695 0.059585664
0000d0 c9 eb 3c 3d 14 c2 99 3d 8a ff 7a 3d a4 9a f0 39
       0.0461233 0.075077206 0.061278857 0.00045891583
0000e0 6f 3c d0 3d 1d b3 11 3d 25 73 a6 3d b0 1a 87 bd
       0.10167777 0.035571206 0.08127431 -0.06596887
0000f0 09 f8 c1 3b e2 0e bf 3d b4 b3 4e bd 57 06 3f 3d
       0.0059194607 0.093290105 -0.050464347 0.046636906
000100 c1 2d eb 3d a7 c7 d2 bd 31 a3 a1 3d 35 8e c0 3d
       0.11483336 -0.10291987 0.078924544 0.09402124
000110 aa 75 bc 3d 7c 50 e5 3c 71 85 96 3d 0e 49 43 3d
       0.0920213 0.02799248 0.07349671 0.047677092
000120 23 b6 ad 3c 32 81 2e 3c c6 02 20 bb 28 53 bf 3c
       0.021205014 0.01065092 -0.0024415716 0.023355082
000130 a1 46 61 bd f8 c9 a0 3c 45 c9 60 3b 12 3d 31 bd
       -0.054998998 0.019627556 0.0034299653 -0.04327113
000140 37 16 89 bd 10 17 c6 3d 1b 6f a2 ba 23 b8 d5 3d
       -0.0669369 0.096723676 -0.0012392731 0.10435512
000150 55 51 91 3d 14 dc 95 bc ea 49 a1 bc 30 b0 bc bd
       0.07095591 -0.018293418 -0.019688565 -0.092132926
000160 80 1a 35 3d f2 12 2d 3c 93 0e 43 3c dd e5 e4 bc
       0.044214725 0.010563599 0.01190533 -0.027941639
000170 9a 42 4b bd e8 d8 aa 3d 54 fc e9 3d 1b 7b b9 bd
       -0.049624063 0.08342153 0.11425081 -0.09056684
000180 85 e8 83 3c 6c 26 62 3c 35 50 c2 3c c6 77 83 3c
       0.016102085 0.013803106 0.023719886 0.016048323
000190 a7 8a 59 3d 2c dd 19 3d 7e 10 ec 3c 71 75 8d bd
       0.053110745 0.03756444 0.028816458 -0.06907166
0001a0 30 b9 05 bd 53 c3 a3 bc 02 a3 27 bd dc b9 47 3d
       -0.03264731 -0.019990599 -0.04092694 0.048761234
0001b0 64 2c 60 bd dd 31 c5 3d 32 40 19 3d cc 9e dc bc
       -0.054729834 0.09628651 0.037414737 -0.026931189
0001c0 84 29 ee 3d e7 07 95 bc d8 29 b5 3d f9 23 cd 3d
       0.11629012 -0.018192245 0.08845872 0.10016627
0001d0 3e 54 47 bc 62 1b ae bd 1d dc 56 bd 5a 19 a2 3d
       -0.012166081 -0.085013166 -0.05245601 0.07914992
0001e0 b9 e0 7b 3d 5a 80 92 bd 01 2b 65 3c 11 a7 a6 bc
       0.06149361 -0.07153387 0.013987304 -0.020343335
0001f0 80 15 4a bc 33 33 91 3d 90 1a 02 bd 38 a3 2b 3d
       -0.012334228 0.070898436 -0.031763613 0.041903704
000200 57 0c 98 3d 5e da 97 bd de 62 dc bc 04 2e a0 bd
       0.07424229 -0.07414697 -0.026902612 -0.07821277
000210 33 c3 00 bd 55 82 7a bd db 3a 95 3d ee c5 d8 bb
       -0.031436156 -0.06115945 0.072866164 -0.006615392
000220 6d 22 92 3c ba 5d 32 3c ea 84 b9 bd 8b 21 b1 bd
       0.017838681 0.010886604 -0.090585545 -0.08648976
000230 48 13 0f 3d 0b a4 93 3d be 3a 1b bd 32 ea 29 bd
       0.034930497 0.07209023 -0.037897818 -0.04148311
000240 6d d6 88 3c 11 e3 1a 3d 7c fa 2d bd ac f3 e7 bd
       0.016703809 0.037814204 -0.04247521 -0.113257736
000250 f9 16 48 bd c1 a1 dc bc 42 2f b2 bd 40 8e 18 bd
       -0.048850033 -0.026932599 -0.0870042 -0.037245035
000260 88 1f 6c 3b 15 23 39 bd 52 63 32 3d 64 db 81 bd
       0.0036029536 -0.045199472 0.04355175 -0.063406736
000270 cb 61 15 3d 15 31 61 bd 67 89 68 bd 30 fe fd bc
       0.036470216 -0.05497845 -0.056771662 -0.031004995
000280 34 a2 1e 3d 47 6e 2f bd 8d 4f 8c bc 11 1c bb bd
       0.038728908 -0.042829778 -0.017127777 -0.091362126
000290 94 5f 36 bd 13 71 d6 bd a8 0f 64 ba b2 96 9f 3d
       -0.044524744 -0.10470786 -0.0008699843 0.07792415
0002a0 6f c4 2c bd 6a 2f 8f bd 70 91 ce 3d f4 6b 97 3d
       -0.04217952 -0.069914654 0.10086334 0.07393637
0002b0 4b 46 c6 bd bd b6 95 3c 2c e5 6f 3d e1 45 24 3c
       -0.09681376 0.018275613 0.058568165 0.010026426
0002c0 a4 4e 7d 3d 6b 47 63 3b 20 1f 11 3d cb 52 20 bd
       0.061842576 0.003468002 0.035430074 -0.039141458
0002d0 d4 25 ae bd 14 fc ba bd 69 19 a9 3d 74 6c 5f 3c
       -0.08503309 -0.09130111 0.082568 0.013636697
0002e0 4d 47 7b bd 36 e7 8e bd d0 c4 d8 bd fa 6c f5 3b
       -0.061347295 -0.06977694 -0.10584414 0.0074897977
0002f0 88 40 c3 3d cd 1c a3 3d 49 01 9d bc 89 9c 0b 3d
       0.09533793 0.07964478 -0.019165652 0.03408483
000300 2d ba 6d 3d f5 da 6e 3b cc 65 b7 bd 0d fa b9 bd
       0.05803888 0.0036446427 -0.08954963 -0.090808965
000310 ca 4b f0 3c 9e ed 69 bd ce fe 72 3d 2b 37 04 bd
       0.029333014 -0.057111375 0.059325032 -0.032279175
000320 31 53 42 bd a6 ae 7b bd cc 5d dc 3c 42 af 22 bc
       -0.04744262 -0.061445855 0.026900195 -0.00992948
000330 02 6b 50 bd 1d 38 4a bd 33 1c 55 bc d0 9e c6 3c
       -0.0508833 -0.04936992 -0.0130072115 0.02424565
000340 47 8b cb bc ad 8f e4 bc 80 5a ab 3d a4 e3 df 3d
       -0.024846686 -0.027900541 0.08366871 0.10932091
000350 38 fd a2 3d 1f 2f f9 3d 10 d3 89 3d 23 7b 72 bc
       0.07958454 0.12167191 0.0672971 -0.014799866
000360 7e 94 bd bc d8 d2 9b bd bb 71 de 3c c9 6b 9b 3d
       -0.023142096 -0.07608575 0.02715384 0.07588918
000370 55 67 d8 bc 74 0a 42 bd 69 d7 a8 bb 87 7a e3 3d
       -0.02641646 -0.04737325 -0.005152632 0.111073546
000380 2e 3c 70 bd a5 7c a0 3d b5 04 58 3c 5f 67 97 bd
       -0.05865114 0.07836274 0.013184716 -0.07392763
000390 76 3e b3 bd de 28 33 3d e0 98 17 bd 63 1e c5 3d
       -0.08752148 0.043740146 -0.037011027 0.096249364
0003a0 8a c4 89 bd 3f ae cb 3b be 72 b3 bd 22 9b 41 3d
       -0.0672694 0.00621584 -0.0876212 0.047267087
0003b0 43 0c 74 3d 1d 53 80 3d f3 1a 97 3c d7 4f 59 3d
       0.059582006 0.062658526 0.018445468 0.053054657
0003c0 08 83 f9 bc 1e d8 b4 3d 94 c8 b1 bd 12 27 3b bd
       -0.030457988 0.088302836 -0.08680835 -0.045691557
0003d0 98 bb ec bd 79 1d 4e bd 5b e3 a2 bd 60 c7 42 3c
       -0.11559218 -0.050321076 -0.07953521 0.011888355
0003e0 6e b3 26 3d f1 04 25 bd 48 e5 4f 3c 5a d9 18 3d
       0.04069846 -0.040287916 0.012688942 0.037316658
0003f0 74 8c 8a 3d 24 1e d9 3c cc 3a 98 bb 14 6e 27 bd
       0.067650706 0.02650363 -0.004645681 -0.040876463

embedding.bias f4 [64]
000000 01 58 22 3b 39 c8 16 bd ba d5 88 3d e3 ae 8b 3d
       0.0024771693 -0.03681204 0.0668139 0.06820466
000010 0f 0b 51 bd 45 0a a3 bb c3 ab 82 bb b5 92 c1 bd
       -0.051035937 -0.0049755895 -0.0039877607 -0.0945181
000020 44 eb 3e 3c cf 05 89 3d 40 b0 42 3d da a0 a2 3d
       0.011652771 0.06690561 0.047531366 0.07940836
000030 d3 0f b3 3c cb 30 b5 bd 7d 2f b1 bd bb 07 64 bc
       0.021858132 -0.08847197 -0.08651636 -0.013917859
000040 ce 90 06 3d 9b c2 1e bd 1c f4 4f 3d 57 6f c2 bd
       0.03285294 -0.03875981 0.05076991 -0.09493893
000050 6b 7e b0 3d 44 ef 2d bc a7 97 ac bd 0b 97 92 3d
       0.08617862 -0.010616127 -0.08427363 0.071577154
000060 07 c3 5f 3d b2 52 99 3d 0a e7 81 3d 22 b0 ab bd
       0.054629352 0.07486476 0.06342895 -0.08383204
000070 e4 4d cb bd 05 3b c2 bd 70 8f 05 bd 23 b5 b8 3d
       -0.09926966 -0.09483913 -0.032607496 0.09018924
000080 29 5c 74 bd ac 22 e2 3c e0 71 fb bc d5 95 a1 bd
       -0.059658203 0.027604423 -0.030693948 -0.07889906
000090 de 20 36 3d 7d 90 2b 3d 67 5e e4 bd 6c ec 79 3d
       0.04446494 0.04188584 -0.11150818 0.061016485
0000a0 d7 6f 06 3d 67 81 7b 38 c8 aa dc bd 0a d2 39 bc
       0.032821503 5.996358e-05 -0.107747614 -0.011341581
0000b0 ef b7 b4 3d 06 d4 24 bd f4 e9 af bc 5a b0 bb 3c
       0.08824145 -0.040241264 -0.021473862 0.02291124
0000c0 eb ec bb bd f1 f3 a1 bd 91 7a 02 3d b8 e9 cd bd
       -0.09176048 -0.07907856 0.03185517 -0.10054344
0000d0 b8 15 c5 bd 49 45 77 bc c2 fe 5e 3d eb 92 81 3d
       -0.09623283 -0.015092202 0.054442175 0.063268505
0000e0 e2 69 c8 bd 56 e7 a7 3d a6 bf c9 bd 77 53 8f 3d
       -0.097858205 0.08198421 -0.09851007 0.069983415
0000f0 9d b6 26 3d 18 74 13 3c ef bc 99 bd 62 0d da bd
       0.040701497 0.008999847 -0.07506739 -0.10647084

convs.0.fc_full.weight f4 [128, 169]
000000 ea 7d 10 bd da f4 9b bc a3 40 3a bd 7e 4c b9 bc
       -0.03527633 -0.019037653 -0.0454718 -0.022619482
000010 c9 b5 02 bc 4d e8 82 bd d0 b6 49 bd 40 36 4d bd
       -0.007977911 -0.06391964 -0.04924661 -0.050100565
000020 d2 e5 32 bd 8a 11 9c 3d db f3 37 3d a3 bb 40 bc
       -0.043676205 0.07620533 0.044910293 -0.011763486
000030 64 26 3f bd e5 b8 5e bd c6 3a 8c bd 34 64 81 3d
       -0.04666747 -0.054375548 -0.06847148 0.0631794
000040 78 0f c9 3b a2 f6 ec 3c 07 48 8b bc 2a 39 92 3d
       0.006135877 0.028926197 -0.017002119 0.071398094
000050 6d 6f 8d bd 1a e6 7b bd 2e 2e d9 3c f4 41 ae 3b
       -0.069060184 -0.06149874 0.026511278 0.005317921
000060 a7 99 6f 3c de 03 3b 3c d9 24 63 37 49 d7 0c 3d
       0.014624036 0.011414496 1.3538834e-05 0.034385
000070 a2 14 ac bc 65 c9 bb 3c a6 56 36 bd 52 3f 01 3d
       -0.021005932 0.02292318 -0.04451623 0.031554528
000080 97 17 5e 3c 6e d6 71 bd 6b cc 2b bd 34 d9 91 3d
       0.013555429 -0.059042387 -0.041942995 0.07121506
000090 8d ca 89 bd 4a a6 7a 3c 3a 38 39 bb e9 48 6a bd
       -0.067280866 0.015298435 -0.0028262273 -0.05719844
0000a0 a0 44 7f 3d dd 97 3d 3d 12 9b 26 bd 2a e7 94 3b
       0.062321305 0.046287406 -0.04067523 0.0045441585
0000b0 45 36 c1 bc 8f 7a 08 3d 32 c1 2d 3c 28 49 83 3d
       -0.023585448 0.033320006 0.010605143 0.06410438
0000c0 34 f3 55 3d 7a 2c 1b bc 3b d6 09 b9 18 68 80 3c
       0.05223389 -0.009471053 -0.00013145145 0.015674636
0000d0 ef 0c ab ba d3 f2 1c 3d 6a 8d 3d 3d 85 f7 16 3d
       -0.0013050119 0.038317513 0.04627744 0.036857147
0000e0 2c 6d 4f 3d 50 78 ac bc 3c bf 2a bd 64 6f 31 3d
       0.050641224 -0.021053463 -0.04168628 0.04331912
0000f0 ec dd 9a 3d d4 99 9a 3c f2 dc 7b bd 74 b1 b0 3c
       0.075618595 0.01887218 -0.061490007 0.021568991
000100 57 b7 03 bc 42 d9 5c 3d f2 e0 19 3d f0 68 16 3d
       -0.008039317 0.05391813 0.03756804 0.03672117
000110 02 bd a4 3d 4c 69 36 bd 66 77 b5 3c 8c ca e2 3c
       0.08043863 -0.044534013 0.02215166 0.027684473
000120 52 24 12 bd 96 4b bb bb e9 ca 15 3a c3 e9 7c 3d
       -0.03567917 -0.0057157977 0.0005714135 0.06174637
000130 7f 1d 79 3d e7 c7 55 bd bf ea 15 3d 32 f8 19 bd
       0.060819145 -0.052192595 0.036600824 -0.037590213
000140 e6 a3 56 bd 54 49 f7 bb 4d 50 2b bd 61 32 3c bd
       -0.0524024 -0.007546583 -0.041824628 -0.045946483
000150 13 e0 9b 3d 10 cc 39 3d 7e 9c 00 bd 56 e0 2a 3d
       0.07611098 0.045360625 -0.031399243 0.04171785
000160 45 30 28 bd 0b f8 d7 bc 9c 71 2b bc 36 98 19 3c
       -0.04106166 -0.026363393 -0.010464098 0.009374669
000170 77 70 24 3d 17 bb 2b 3d 39 e3 a4 3d 1a db 32 bd
       0.040146317 0.04192647 0.08051152 -0.043665983
000180 08 97 f5 3c 1a 67 97 3c 63 89 3c bd c4 36 af bd
       0.029979244 0.01848178 -0.04602946 -0.085553676
000190 96 61 ff 3b 2b f2 8a 3c 16 a8 01 3b 5b 95 37 3c
       0.0077936156 0.016961178 0.0019784025 0.011205043
0001a0 d6 9e 80 bd 29 1b 5a bd a7 a8 95 3d 92 7b 67 bb
       -0.062802956 -0.05324856 0.073075585 -0.0035321456
0001b0 bf ce e5 3b 24 9c df 3c df ab 4c bd 43 46 31 3c
       0.0070131714 0.027296133 -0.049968597 0.010819974
0001c0 52 22 c6 bc 61 71 32 bd 75 f4 d2 3c 2e 39 58 3d
       -0.024186287 -0.043565158 0.025751332 0.052788906
0001d0 d0 de 8e 3d 46 48 74 3d 58 e7 e7 3b 3f e4 52 bd
       0.06976092 0.059639238 0.007077139 -0.051487204
0001e0 2b e9 12 3d a6 52 09 bd 30 72 51 bb cf bc 87 bc
       0.035866898 -0.033526085 -0.003195893 -0.016569523
0001f0 75 c9 b5 bc 6d bb 27 bd 41 64 31 bd c9 c2 49 3d
       -0.022190789 -0.040950228 -0.0433085 0.049258027
000200 14 ee 65 bd 20 1f c4 bb 00 e2 6a bd 07 b0 04 bd
       -0.056135252 -0.0059851557 -0.057344437 -0.032394435
000210 fa 47 05 3d b4 e2 23 bd b2 80 88 bd 5d aa 53 bd
       0.032539345 -0.040011123 -0.06665172 -0.051676143
000220 60 42 2d 3c 5d 48 e5 3d f6 8a 1d bd 3f 12 f0 ba
       0.010574907 0.11195443 -0.0384626 -0.0018315985
000230 09 1f 9e bb 87 f0 11 bc b4 f2 9b 3b cc 98 dc 3c
       -0.004825477 -0.008907444 0.004759157 0.026928328
000240 c2 29 38 bd cc 47 c4 bd 14 ef 2c bd 92 a6 85 bd
       -0.0449617 -0.09584007 -0.04222019 -0.065259114
000250 37 ac 98 bd 97 eb 2e 3c 4f 2a ad bc e8 d2 4c bc
       -0.074547224 0.010676286 -0.021138338 -0.012501456
000260 09 ee 11 bd cd 8a ea 3c 2b d4 e6 bc ce 66 67 3d
       -0.0356274 0.028630638 -0.028177341 0.056494527
000270 c5 5c 80 3d 33 ce 91 bd 3a 30 ce bc a7 78 14 bd
       0.062676944 -0.071194075 -0.02516948 -0.036247876
000280 1a 8a cd 3b ea 49 b5 bc 83 8a f3 3b 4e a7 e9 3c
       0.0062725665 -0.022129972 0.0074322834 0.02852216
000290 67 cd 26 3d 74 f7 72 bd 70 6a aa 3c 62 f5 ac bc
       0.04072323 -0.05931802 0.020802706 -0.021113101
0002a0 c0 32 8b bb 5b e2 a6 bc 1f 25 43 bd 15 93 35 3d
       -0.004247993 -0.020371607 -0.047642823 0.04432972
0002b0 bc d9 bd 3c f1 a1 3a 3d 8a 5f 22 3b dd 98 f1 3c
       0.023175113 0.045564596 0.0024776184 0.029491836
0002c0 ed 12 3f 3d fd a0 62 3d b7 64 87 bd 86 ba 7f bd
       0.04664891 0.05532931 -0.06611007 -0.062433742
0002d0 28 b0 69 3d 75 5c 62 bb 66 8c c4 bc 19 69 44 3d
       0.05705276 -0.0034539972 -0.023992728 0.04795179
0002e0 3a 5f 48 3d 94 81 30 3d 72 e0 da bc 6c 59 28 bd
       0.04891894 0.043092325 -0.026718352 -0.041100904
0002f0 1b 36 05 3c c8 71 15 3b 80 2f 60 bd 67 6c 96 3d
       0.0081305755 0.0022803415 -0.0547328 0.07344895
000300 32 d7 8e bd 57 a3 8f bd 7d 69 1c bd e6 a7 80 3a
       -0.06974639 -0.070135765 -0.03818654 0.0009815663
000310 87 4a 2a bd 16 f3 39 bd 3c 35 4d 3d d8 0b e5 bc
       -0.04157498 -0.04539784 0.050099596 -0.02795975
000320 6a 1c 73 3c 25 29 17 bd 32 b3 7c bd f3 df 1b bb
       0.014838317 -0.036904473 -0.06169433 -0.0023784607
000330 a8 79 ce bc e1 ef 5b bc bf e4 7b bd 49 fa 88 3d
       -0.025204495 -0.013423891 -0.061497446 0.06688363
000340 d7 cf 28 bd 20 7c 34 3d 99 68 6c bc 56 07 09 bd
       -0.041213837 0.044063687 -0.014429235 -0.03345426
000350 33 59 8a bd 9f 75 b3 3c 62 5b 64 bd 98 fd 79 3d
       -0.06755295 0.021906672 -0.055751212 0.06103286
000360 dd 30 bd 3c 60 1a 29 bd e8 e7 99 bd 6d 5c 25 3d
       0.023094589 -0.04128492 -0.07514936 0.040371347
000370 8b a9 99 bd 46 77 a0 3d 11 7f a1 3d 21 08 a1 bc
       -0.07503041 0.078352496 0.07885564 -0.019657196
000380 5f 81 93 3d 2f 18 59 bd 96 d8 84 bc b6 d6 69 bc
       0.0720241 -0.05300158 -0.016216557 -0.0142723825
000390 02 58 23 3c 67 1e 84 bc d2 34 09 bd 09 74 9a bc
       0.009969713 -0.016127778 -0.03349764 -0.018854158
0003a0 ba 9f 61 3c 6b 1c 80 bb f2 cb 3d 3d fb 75 84 3c
       0.013770992 -0.0039096377 0.046337076 0.016169539
0003b0 e6 98 11 3d e0 16 de bc 57 d4 15 3d 41 6f 3e 3d
       0.035546206 -0.027110517 0.036579456 0.04649282
0003c0 5a a3 7a 3d 86 39 d8 bc be a9 95 bc 49 a9 de bc
       0.06119094 -0.026394617 -0.018269416 -0.02718033
0003d0 ca 7b 8e 3a 34 cf 30 bd 02 35 84 bd dd 1c 48 bd
       0.0010870632 -0.043166354 -0.06455423 -0.04885565
0003e0 3b 46 f2 3c 3c 5a 3e 3c 1b 1f f5 bb ec 93 b0 bc
       0.029574504 0.011618193 -0.0074805147 -0.02155491
0003f0 b3 eb be 3b 8b a0 a2 3d 29 fc a4 3d 74 b4 a3 b9
       0.0058264374 0.079407774 0.08055908 -0.0003122423

convs.0.fc_full.bias f4 [128]
000000 2c 9d 6d bd ab da 8f bd 39 a1 86 bd fd 87 2f bc
       -0.05801122 -0.070241295 -0.065737195 -0.0107135745
000010 0b 74 ca 3c 1f 32 c5 bc 46 b4 87 3d 97 cf 81 3d
       0.024713537 -0.024071751 0.06626181 0.06338423
000020 4d 9b 07 3d 55 54 45 3d 77 4c ab bc 21 95 aa ba
       0.03310709 0.04817613 -0.020910485 -0.0013014415
000030 74 5a 96 bc 3d 0a 72 bd 68 80 c6 3c 1b f2 4e bd
       -0.018353678 -0.059091795 0.02423115 -0.05052386
000040 99 37 9b bc 25 8a 4e bd 12 6b 10 3d ea 98 f3 3c
       -0.01894741 -0.050424714 0.03525836 0.029736001
000050 99 7f de bc f4 d8 24 3d 8b a1 31 3d 78 83 a1 3c
       -0.027160453 0.040245965 0.04336695 0.01971601
000060 67 bc 0d 3c 5f 88 4b 3d 72 58 72 3d a2 ea 9b bd
       0.008650876 0.0496906 0.05916638 -0.07613112
000070 02 00 48 bd 01 31 98 bd 67 5c 8d bc 98 da 31 bd
       -0.048828132 -0.07431222 -0.017255975 -0.043421358
000080 04 f8 95 3c ce 0e b6 bc 66 63 9c bd 5b 5e 3c 3d
       0.01830674 -0.022223856 -0.07636146 0.045988422
000090 73 cb 85 bd 74 d7 64 bd f0 51 9c bd 83 c0 3c 3d
       -0.065329455 -0.055869535 -0.07632816 0.04608203
0000a0 b3 71 3b 3c 57 04 67 bd a7 93 4c bd 33 c8 ca bb
       0.011440682 -0.056400623 -0.0499455 -0.0061884164
0000b0 7e 60 92 3d ee 95 41 bb 60 c0 7b 3c 34 aa c6 3a
       0.07147311 -0.0029538828 0.01536569 0.0015156926
0000c0 20 44 c0 bc 90 fe 76 bc b3 40 0a 3d de f7 2d bd
       -0.023469985 -0.015075341 0.03375311 -0.042472713
0000d0 b4 ce 01 bd 89 5c ac bb 3d 97 80 3d 8d 32 9b bd
       -0.031691268 -0.0052600545 0.062788464 -0.07578001
0000e0 65 14 27 bd 48 6e 88 bd 58 e1 4d bc 2b be 67 3d
       -0.040790934 -0.066616595 -0.012565933 0.056577843
0000f0 33 74 6a 3d 48 14 7f bd 6f cb 44 bd f8 e7 2f 3c
       0.057239722 -0.0622752 -0.048045572 0.010736458
000100 80 bd 20 bd 94 97 57 bd ed ce 82 bd bf 54 00 3d
       -0.03924322 -0.05263479 -0.06387124 0.03133082
000110 cc 3f 83 3d c4 fb 20 3d 97 e4 81 bd 32 78 14 bd
       0.06408653 0.039302602 -0.06342428 -0.03624744
000120 65 a1 f2 bc 37 30 df 3c bf ac e7 3c f8 a4 36 bd
       -0.029617975 0.02724467 0.028280614 -0.04459092
000130 3b b2 a3 3c 2d 88 ba bc 02 31 8c 3d 69 6e 60 bd
       0.019982448 -0.022770012 0.06845285 -0.054792795
000140 95 f6 33 3d a5 a8 28 bd a6 83 0f bd 81 0a f9 3a
       0.04393633 -0.041176457 -0.03503766 0.0019000323
000150 a7 80 16 3d 15 4d 37 3d 32 9d 6f bd de 84 81 bd
       0.036743786 0.044751246 -0.058499523 -0.063241705
000160 58 e8 49 bb 36 88 3f 3d 54 f0 d6 3b f4 43 c8 bc
       -0.0030808654 0.04676076 0.006559411 -0.024446465
000170 2a b2 f2 3c 08 3b 22 bd e3 7c 76 bd c9 8d 3f 3d
       0.02962597 -0.039607078 -0.060177695 0.046766076
000180 6b 9c 85 3c 63 71 ce bc f8 97 73 3c 4e 0c ac 3c
       0.016309937 -0.025200551 0.014867775 0.021001961
000190 d6 3c 20 bc 27 ea 5d bd b6 2c ff 3c fd 46 8b 3d
       -0.009780129 -0.054178383 0.03114925 0.06800649
0001a0 8f 4a 3c bd 67 5b c9 bc c1 8b 8f 3c 4a 17 06 bd
       -0.045969542 -0.024579717 0.017522695 -0.032737054
0001b0 af 6c 89 3d 6e 36 c7 3c 07 7f d3 3c 06 41 9d bb
       0.06710183 0.024317946 0.025817407 -0.004799011
0001c0 e6 e6 2a bd 37 6d 26 bd b9 0e 0d 3b 8b 52 27 3c
       -0.04172411 -0.0406315 0.0021523668 0.010212551
0001d0 4a 46 eb 3c d7 f7 6f bd cc 95 92 bd 64 f9 a6 3c
       0.02872004 -0.058585968 -0.07157478 0.02038259
0001e0 62 04 33 bd 59 aa f5 ba 80 00 96 bd cb 00 45 3d
       -0.04370535 -0.0018742784 -0.07324314 0.04809646
0001f0 20 7a 0b 3d 98 b4 cf 3c 64 af 31 bc 55 cc 31 3d
       0.034052014 0.025354668 -0.010845039 0.043407757

convs.0.bn1.weight f4 [128]
000000 70 a3 80 3f ab 10 80 3f fc d0 84 3f 0b 90 80 3f
       1.0049877 1.0005087 1.0376277 1.0043958
000010 13 27 80 3f 0a 13 7f 3f d2 23 82 3f fe 90 81 3f
       1.0011925 0.99638426 1.0167181 1.0122373
000020 20 4a 80 3f 2f 34 80 3f 04 87 81 3f c0 09 82 3f
       1.0022621 1.0015925 1.0119328 1.0159225
000030 23 17 80 3f 42 29 80 3f 4a f6 81 3f 70 d9 82 3f
       1.0007061 1.0012591 1.0153286 1.0222607
000040 50 ab 81 3f f2 77 80 3f 86 76 85 3f 3d 81 80 3f
       1.0130405 1.0036604 1.0426795 1.003944
000050 e7 38 80 3f 96 f4 81 3f ce 3d 86 3f 96 e8 82 3f
       1.0017365 1.0152767 1.0487611 1.022723
000060 80 12 81 3f 33 c9 81 3f cd c5 82 3f 91 3d 80 3f
       1.0083771 1.0139526 1.0216614 1.0018789
000070 0b 17 85 3f 51 d1 8a 3f 1d 1a 80 3f 91 22 85 3f
       1.0397657 1.0845128 1.0007969 1.0401174
000080 ea 9d 86 3f 78 6a 86 3f 28 2f 80 3f a8 48 80 3f
       1.0516942 1.0501242 1.0014391 1.0022173
000090 93 af 81 3f b3 27 81 3f 2c de 82 3f 33 ee 7f 3f
       1.0131706 1.009024 1.0224051 0.9997284
0000a0 38 1d 88 3f 00 4b 81 3f b9 ca 81 3f 53 36 83 3f
       1.0633917 1.0101013 1.0139991 1.0250953
0000b0 be 6e 80 3f 20 af 7f 3f fb bd 84 3f 62 41 81 3f
       1.0033796 0.99876595 1.0370477 1.0098078
0000c0 1a a8 7f 3f 7b ea 80 3f d1 e7 80 3f 86 d9 7f 3f
       0.9986588 1.0071558 1.0070745 0.9994129
0000d0 90 d8 7e 3f ed b8 81 3f e6 91 81 3f 6e cf 84 3f
       0.995492 1.013456 1.012265 1.0375803
0000e0 db 2c 80 3f 06 f3 82 3f 75 f4 81 3f 1b c8 80 3f
       1.0013689 1.0230415 1.0152727 1.0061067
0000f0 ff ed 80 3f f3 05 80 3f 64 7d 82 3f c3 0d 81 3f
       1.0072631 1.0001816 1.0194516 1.0082325
000100 e5 24 80 3f c9 e3 7f 3f d1 ae 86 3f dc 79 80 3f
       1.0011259 0.9995695 1.05221 1.0037189
000110 c8 d9 80 3f b0 44 81 3f e2 7b 80 3f 51 74 7f 3f
       1.0066462 1.0099087 1.0037806 0.9978686
000120 19 6b 80 3f ee 2e 81 3f 2a 01 83 3f d0 60 81 3f
       1.0032684 1.0092447 1.023473 1.010767
000130 2b a7 7f 3f db f0 7e 3f 91 1c 80 3f b1 ad 83 3f
       0.99864453 0.99586266 1.0008718 1.0287381
000140 89 1f 81 3f 49 2d 80 3f b6 34 88 3f b8 fc 81 3f
       1.0087749 1.001382 1.0641086 1.0155249
000150 ce 32 80 3f bd cc 7e 3f 0d c2 83 3f bd e1 80 3f
       1.0015504 0.99531156 1.0293595 1.006889
000160 ca b9 81 3f a4 c4 7e 3f d2 79 80 3f 91 6f 7f 3f
       1.0134823 0.995188 1.0037177 0.9977961
000170 ae 08 80 3f c5 f8 84 3f 3b dd 7f 3f d8 05 86 3f
       1.0002649 1.0388418 0.99946946 1.0470533
000180 15 90 84 3f fa 92 81 3f 3c ab 7f 3f 22 b2 81 3f
       1.035647 1.0122979 0.9987066 1.0132487
000190 c4 f7 7f 3f 03 a2 80 3f f8 53 82 3f aa 20 81 3f
       0.99987435 1.0049442 1.0181875 1.0088093
0001a0 d1 2a 83 3f 7d a1 83 3f a4 2d 83 3f aa 20 84 3f
       1.0247442 1.0283657 1.0248303 1.0322468
0001b0 0d 1b 81 3f 42 8c 80 3f ec c8 7f 3f 70 35 81 3f
       1.008638 1.0042803 0.9991596 1.0094433
0001c0 16 4f 80 3f 61 d5 80 3f 00 62 81 3f 22 70 80 3f
       1.0024135 1.0065118 1.0108032 1.003422
0001d0 8b f5 80 3f cd 37 82 3f 4b 9d 80 3f 6e a1 81 3f
       1.0074934 1.0173279 1.0048002 1.012739
0001e0 37 39 80 3f ae ac 84 3f 9e 58 83 3f 69 ed 80 3f
       1.001746 1.0365198 1.0261419 1.0072452
0001f0 c2 88 7f 3f a9 14 80 3f 8e 19 7e 3f 8b 91 80 3f
       0.9981805 1.0006305 0.99257743 1.0044416

convs.0.bn1.bias f4 [128]
000000 e9 f8 02 3a cc 4f 7c 3a c3 6e 4c bd 94 fa cc 3b
       0.0004996197 0.0009624928 -0.049910318 0.006255457
000010 3f 7b a8 3a 79 46 97 ba 52 41 81 3a 4d f3 13 3a
       0.0012854113 -0.0011541388 0.0009861386 0.00056438596
000020 cd 7c 00 bb 94 28 9d 3a 0a b8 40 bc aa 59 f3 bb
       -0.0019605637 0.0011990243 -0.011762628 -0.0074264603
000030 f9 71 27 3a d0 11 ce 3a fa 47 24 ba 7d 35 c9 bb
       0.00063875277 0.0015721861 -0.0006266829 -0.0061404095
000040 a2 3d 21 bc 4c e9 ea b9 d6 c4 0c bc 22 6d 4d bb
       -0.009841355 -0.00044805778 -0.008591851 -0.0031345566
000050 2f 26 0b 3b c4 9d 3a bb 1e f5 63 bc 34 70 ea b8
       0.0021232476 -0.0028475383 -0.013913421 -0.00011178889
000060 5b 15 6d ba 84 9b 3f bb fb 8c 64 bb cd a9 04 3b
       -0.0009044015 -0.0029236982 -0.003487407 0.002024281
000070 db 9f 75 bc 88 f0 bd bc 93 71 22 bb 88 16 3b bc
       -0.014991726 -0.023185983 -0.0024786934 -0.011418946
000080 2e 2d a2 bc 69 a8 02 3b 7e 53 90 39 ac 17 29 bb
       -0.019796934 0.0019936806 0.00027528027 -0.0025801463
000090 68 34 b4 bb 89 32 85 3b eb 30 c2 bb 6e 53 7c bb
       -0.0054994114 0.004064862 -0.0059262416 -0.0038501876
0000a0 b0 55 0c bc 48 31 42 bc f9 1b ab ba 2c 96 91 bc
       -0.008565351 -0.01185257 -0.0013054601 -0.017771803
0000b0 a7 18 43 bb c1 3c bc 38 cc 9d 06 bc 4e 02 dd bb
       -0.0029769333 8.975855e-05 -0.008216333 -0.0067446595
0000c0 aa 75 60 3b 42 5a e2 38 43 b2 2a ba bb db b1 3a
       0.003424982 0.000107933316 -0.00065115484 0.0013569513
0000d0 10 b4 16 3b 87 ca 91 39 f6 13 f9 ba aa 6e 28 bc
       0.002299551 0.0002780745 -0.0019003141 -0.010280291
0000e0 fe 4d f8 ba 78 4d 86 bc 77 51 69 bc a9 38 fd ba
       -0.0018944142 -0.016394362 -0.014240614 -0.0019319254
0000f0 d7 73 13 3b 19 4b 0c 39 32 2e 97 b9 12 61 fe ba
       0.0022499466 0.00013379416 -0.00028835383 -0.0019407591
000100 fe ee d2 b9 61 b0 81 3a d0 7f 79 bd 7b f2 6e 3a
       -0.00040232384 0.0009894484 -0.060912907 0.0009115112
000110 99 a1 26 bb 44 22 94 bb c5 48 69 bb 47 76 3b 3a
       -0.002542591 -0.0045206863 -0.0035596353 0.00071511086
000120 f1 74 cc ba ea fe 02 bb a0 8b 3b bc b8 c7 ef bb
       -0.0015598816 -0.0019988366 -0.011446863 -0.0073175095
000130 46 b1 a4 3a a0 f2 27 3b ee 6e a2 b9 eb de 53 bc
       0.0012565039 0.0025626794 -0.00030981697 -0.012931566
000140 38 90 16 bc 7a 21 14 ba a7 20 0e bd f8 9a dd bb
       -0.009189658 -0.00056507403 -0.03469911 -0.0067628585
000150 19 e8 a1 ba 61 7c bc 39 91 00 89 bc 64 c8 2e bb
       -0.0012352496 0.00035950824 -0.016723903 -0.0026669735
000160 77 75 b9 bb ec 47 e2 b8 f9 77 8d 3a 7e e0 b0 39
       -0.005659755 -0.00010789916 0.0010793201 0.00033736596
000170 ed b8 43 bc 13 c9 ea bc 68 d4 bc b8 cd bf c1 bc
       -0.011945945 -0.028660333 -9.004102e-05 -0.023651028
000180 98 cf 02 bd 4b 80 3d bb b3 b6 07 39 29 28 c0 bb
       -0.031936258 -0.002891558 0.00012942664 -0.0058641625
000190 3f 89 d1 ba 97 31 17 bb 08 df 2b bc 69 7d c6 bb
       -0.0015986337 -0.002307033 -0.0104901865 -0.0060574305
0001a0 90 3a 55 bc 60 38 86 bc 36 28 4c bc 72 a1 ae bc
       -0.013014451 -0.016384304 -0.012460759 -0.021317217
0001b0 5c ce 68 bb 89 a5 71 ba f3 57 a6 bb 10 83 ea bb
       -0.003552339 -0.0009218087 -0.0050764023 -0.007156737
0001c0 ec 10 1c ba c2 c9 3c bb 8e bf c6 ba 7a 37 14 bb
       -0.0005953449 -0.002880678 -0.0015163289 -0.0022616074
0001d0 8a c1 f6 ba f0 c8 ef bb 77 00 2d bb dd e8 15 bc
       -0.001882599 -0.007317655 -0.0026397982 -0.009149757
0001e0 73 16 5b ba 63 db f0 bc a4 dc 92 bc 6d 56 77 bb
       -0.0008357532 -0.029401487 -0.017927475 -0.0037740723
0001f0 8d 01 87 3a c0 6a 20 ba b6 48 77 3b ba ae 6e ba
       0.0010300145 -0.00061194226 0.0037732548 -0.0009105016

convs.0.bn1.running_mean f4 [128]
000000 fe 05 2b be cf 36 82 bd 73 54 b7 bd 77 50 f1 bd
       -0.16701505 -0.0635811 -0.08951654 -0.117829256
000010 44 f9 ae bc 78 86 87 3a 64 8b 47 3e ab 8d dd 3d
       -0.021359093 0.0010339757 0.19486767 0.10818037
000020 ca d8 5c bd 38 eb 24 3d d1 08 fe bd 4e df 36 3d
       -0.053917684 0.040263385 -0.12404025 0.044646554
000030 c2 20 f8 3d 0f 5b 22 be 4e f0 e0 3d ee 3a 08 3e
       0.12115623 -0.15855049 0.109833345 0.1330373
000040 51 90 29 3e f9 08 05 3d fc 87 83 bd 21 53 10 3b
       0.16558959 0.03247926 -0.06422421 0.0022022205
000050 52 6e a3 3d e8 77 92 3d 12 75 b5 3d 6c 49 34 3e
       0.07980026 0.071517766 0.0886022 0.17606133
000060 40 a3 2d 3e b7 d1 34 3e 5b 75 cd 3b 6b 2f cf bd
       0.16956806 0.17658125 0.0062700934 -0.10116466
000070 f9 cf 69 bd fb aa 56 be 9f fe 8e 3d e7 38 1d bd
       -0.057083104 -0.20963661 0.06982159 -0.038384344
000080 c4 36 26 bd f6 5d e9 3c 01 83 3b be 06 93 23 3d
       -0.040579572 0.028487187 -0.18311693 0.039935134
000090 4d 30 11 bd dc b3 3b bb 0f 00 96 bd 82 93 44 3e
       -0.035446454 -0.002864114 -0.0732423 0.19196895
0000a0 11 df d3 3b 83 41 13 be 3e 60 48 bd bd 22 9c 3d
       0.0064658006 -0.1438046 -0.04891991 0.07623813
0000b0 01 c7 b7 3d 97 09 f9 3d 50 c8 c2 3d 37 51 36 3e
       0.08973504 0.12160032 0.09510863 0.17804419
0000c0 53 51 95 bc ee ad 08 be b6 ac af 3d b6 a5 45 3d
       -0.018227255 -0.13347599 0.08577864 0.048253737
0000d0 ac 4e b0 3b c7 eb a0 3d 44 f4 0b 3e bb 83 03 bd
       0.005380472 0.07857471 0.13667399 -0.03210805
0000e0 59 1b df bc 16 ec 07 bd 19 0b cc bb 4f 45 30 3e
       -0.02723472 -0.033184133 -0.006226909 0.17213939
0000f0 4f 8c a6 3d 06 3f 02 bc 5b 5d 8d 3d b9 b2 ea 3d
       0.081322305 -0.007949596 0.06902572 0.1145987
000100 b9 cb 56 be 7c 23 dc 3d 88 1a 13 bd 9f ff 75 3d
       -0.20976152 0.107489556 -0.035913974 0.060058232
000110 d0 56 03 3e 11 c7 e8 3d 39 ef 61 ba cd 32 fb 3d
       0.12826085 0.11366094 -0.0008618716 0.12265549
000120 a9 0e 34 3d 70 f3 f1 bd c9 c3 c0 bb 47 a8 c0 bd
       0.043959294 -0.1181401 -0.0058827144 -0.09407096
000130 3c 83 06 3c 19 ee 87 bd 1f 7b f7 bc 0c 92 53 bd
       0.00821 -0.066372104 -0.030210076 -0.051652953
000140 4e 14 1f bd 71 65 e9 bd 3b a0 3e be 82 1e ab 3c
       -0.038837723 -0.113963015 -0.1861581 0.02088857
000150 df 80 a0 3d 53 0e 16 3d cc d9 d5 bd 4d 7e ef bc
       0.0783708 0.036634754 -0.10441932 -0.02923503
000160 25 a9 29 be 0a 67 f4 3d 04 f8 be bd 64 56 c3 3d
       -0.1656843 0.11933716 -0.09324649 0.09537962
000170 d1 94 f0 bc 69 be 8f 3d c4 85 0a bd 3e 08 56 3e
       -0.029367836 0.0701874 -0.033818975 0.20901582
000180 d6 87 b6 bd 6f 0e b2 3d a1 0e 83 3e 20 40 5f 3e
       -0.089126274 0.08694159 0.25597098 0.21801805
000190 a2 1e 8e bd 57 24 51 be c6 98 00 3e 8e 26 36 bd
       -0.069394365 -0.20424019 0.12558278 -0.044470362
0001a0 b9 ea 9d 3c 5d 43 e6 bd 0b 8c d4 3d 35 d5 e5 3d
       0.019276964 -0.11243317 0.103782736 0.11222307
0001b0 7d 6e ee 3d 1d ab 00 bd dc 51 31 bd 2f 9d ab 3d
       0.11642168 -0.031413186 -0.043290958 0.0837959
0001c0 40 20 5f bc 69 3a db bd 58 67 20 3d 7d 01 77 3d
       -0.013618529 -0.107045 0.039161056 0.060304154
0001d0 91 d4 4b 3d ac 03 1d be 5d 70 f7 bb 70 b1 94 bc
       0.049763266 -0.15333432 -0.0075512365 -0.018151015
0001e0 b8 ce e1 3c 55 f5 9c be dc 90 01 bd f9 7c 0c 3d
       0.027564391 -0.30655923 -0.03163229 0.03429887
0001f0 e2 71 b2 ba d8 55 19 bd 56 ea a3 bd 6f b0 13 3d
       -0.0013614262 -0.037435383 -0.080036804 0.036056932

convs.0.bn1.running_var f4 [128]
000000 d4 12 66 3b cb 4b d4 3b fe ac 54 3c ab a3 e2 3b
       0.0035106437 0.006478762 0.012980698 0.0069164834
000010 29 43 4e 3b 88 e3 cb 3b 8f c8 b8 3b 41 d8 fc 3b
       0.0031473136 0.006222192 0.005639143 0.007716209
000020 11 01 d7 3b b5 87 cc 3b 15 e9 43 3c 99 8b 9d 3b
       0.0065614064 0.0062417635 0.011957427 0.004807901
000030 dc fb e6 3b a0 63 ae 3b f3 39 14 3c 89 fe f9 3b
       0.007049067 0.005321935 0.009047019 0.00762922
000040 2b 51 bb 3b 32 4f dc 3b 75 2c 79 3c 01 1b 79 3b
       0.005716463 0.006723308 0.015208353 0.003801048
000050 c1 40 f6 3b a2 c2 ce 3b 21 5d 44 3c 0e 2f c4 3b
       0.0075150435 0.006309823 0.011985094 0.0059870547
000060 1e 1a ed 3b 48 67 12 3c 5b db f6 3b 29 5a 69 3b
       0.0072357794 0.008935757 0.0075334734 0.0035606718
000070 17 68 20 3c 7a fd 5f 3c 56 f2 70 3b 06 54 4d 3c
       0.009790442 0.013671273 0.0036765537 0.01253224
000080 4f 41 82 3c 2d 3b 3a 3c 61 e6 aa 3b 93 2d ba 3b
       0.015900282 0.011366648 0.0052154516 0.0056817024
000090 2f 6b f7 3b 6f d3 41 3c 97 a6 57 3c f1 68 c0 3b
       0.007550619 0.011830195 0.013162277 0.005871885
0000a0 45 0a 43 3c ad 6b 1d 3c 80 06 31 3c 85 fb 05 3c
       0.011904304 0.009608191 0.010804772 0.008177643
0000b0 63 22 0b 3c 9f c2 82 3b 1e c8 21 3c aa 66 1d 3c
       0.008492085 0.003990486 0.009874372 0.009606997
0000c0 94 12 c3 3b 99 0c ef 3b 28 f1 d2 3b 88 8a 80 3b
       0.0059531424 0.007295203 0.0064374395 0.003922764
0000d0 fc 9d c6 3b fc 0e 24 3c a1 e8 aa 3b c3 24 e6 3b
       0.0060613137 0.010013338 0.00521572 0.0070234253
0000e0 6a 9a 9e 3b 35 f2 4e 3c ad 03 59 3c a3 fb be 3b
       0.004840185 0.012630989 0.013245505 0.0058283373
0000f0 7c f8 3a 3b e2 b4 ab 3b 0b de e7 3b a0 71 75 3b
       0.0028529456 0.005240069 0.00707603 0.003745176
000100 69 9c cd 3b e5 c6 9f 3b 89 50 39 3c c9 f6 38 3c
       0.006274749 0.004876005 0.011310705 0.011289307
000110 f7 fd 45 3b 13 8e a6 3b 7b 15 16 3c 86 27 e7 3b
       0.003021119 0.0050828545 0.009160395 0.007054272
000120 27 d0 eb 3b 73 fc b7 3b 42 ac 59 3c 7c d9 5f 3c
       0.0071964446 0.005614811 0.013285698 0.013662692
000130 5f c2 25 3c 18 97 b0 3b 74 c0 07 3c a0 c8 09 3c
       0.010117142 0.0053891055 0.0082856305 0.008409649
000140 4c 54 fd 3b bc 46 09 3c 94 17 d9 3c 27 a0 d6 3b
       0.0077309962 0.008378681 0.0265005 0.0065498534
000150 b5 b4 10 3c d5 47 c9 3b d6 86 f8 3c 82 2e 05 3c
       0.008832146 0.0061425962 0.030337732 0.008128764
000160 fd 06 f0 3b 4c 4e 0f 3c 9c 27 26 3c a7 28 15 3c
       0.007325052 0.008746695 0.01014128 0.009103931
000170 f1 29 18 3c cc 77 7f 3c dd 58 a3 3b cc b0 1f 3c
       0.009287343 0.015592527 0.0049849586 0.0097467415
000180 60 cf 97 3c 16 47 7e 3c b7 e2 01 3c 96 68 e5 3b
       0.018531501 0.015519878 0.007927588 0.007000993
000190 df fe 3f 3c 5f ee 34 3c 01 61 54 3c 76 6b 31 3c
       0.011718481 0.01104316 0.012962581 0.010828843
0001a0 c6 12 8e 3c 91 78 9a 3c ab b8 52 3c 0f de 1d 3c
       0.017342936 0.018856319 0.012861411 0.009635462
0001b0 93 fc 1b 3c 22 52 9f 3b 2c f1 09 3c fd b7 6c 3c
       0.009520668 0.004862086 0.008419316 0.014448163
0001c0 3f 0c a0 3b 4f 0d ad 3b 92 6a 49 3c 94 38 b7 3b
       0.0048842723 0.0052811275 0.012293475 0.0055914614
0001d0 32 d8 dd 3b 09 c8 5f 3c f0 43 dd 3b 96 60 12 3c
       0.0067701573 0.013658532 0.0067524835 0.008934161
0001e0 11 c8 d1 3b cd 45 60 3c 92 0e 4c 3c 10 15 21 3c
       0.0064020236 0.013688517 0.012454646 0.009831682
0001f0 cf ef 9d 3b 74 a4 c6 3b 35 5f 73 3c 1f 97 2d 3c
       0.004819847 0.006062085 0.014854242 0.010595112

convs.0.bn2.weight f4 [64]
000000 3d 58 7a 3f 9f f2 7d 3f f3 6d 99 3f 19 d8 79 3f
       0.9779089 0.99198335 1.1986679 0.97595364
000010 34 42 80 3f e7 67 7e 3f 6f ad 7c 3f 26 9f 7c 3f
       1.0020204 0.9937729 0.9870214 0.9868034
000020 a2 c1 7c 3f 0f 33 7d 3f 1c 5b 7a 3f 61 25 80 3f
       0.9873296 0.98906034 0.9779527 1.0011407
000030 b4 43 7a 3f 04 66 75 3f a1 38 7d 3f f6 a8 81 3f
       0.97759557 0.9585879 0.98914534 1.0129688
000040 70 34 7e 3f fd c6 77 3f 44 91 82 3f a5 67 81 3f
       0.99298763 0.9678801 1.0200582 1.0109755
000050 b6 08 79 3f 24 7a 81 3f 6b a1 87 3f 24 7b 81 3f
       0.97278917 1.0115399 1.0596136 1.0115705
000060 ce 14 83 3f 72 eb 74 3f 59 21 81 3f f6 1d 7f 3f
       1.0240724 0.9567176 1.0088302 0.9965509
000070 33 5f 84 3f 25 e1 84 3f f8 1d 79 3f ba e8 83 3f
       1.0341552 1.0381209 0.97311354 1.0305398
000080 59 cf 80 3f c8 98 85 3f 8d 1f 78 3f e6 05 82 3f
       1.0063277 1.043725 0.9692314 1.015805
000090 29 a8 7b 3f db 72 7e 3f 5f 67 80 3f 4b 67 7f 3f
       0.9830347 0.99394006 1.0031546 0.9976699
0000a0 04 0f 87 3f 61 8e 80 3f 03 60 83 3f 83 18 85 3f
       1.0551457 1.004345 1.0263675 1.0398105
0000b0 67 d1 78 3f 8e 0d 7c 3f f0 e2 81 3f c3 08 85 3f
       0.9719452 0.9845818 1.0147381 1.0393299
0000c0 cc 5d 76 3f 33 45 80 3f d2 4f 81 3f 61 c7 78 3f
       0.9623687 1.0021118 1.0102484 0.9717923
0000d0 52 f7 78 3f 2a d8 80 3f ba df 80 3f 65 3e 7b 3f
       0.9725238 1.0065968 1.0068276 0.9814208
0000e0 c6 74 81 3f 0b e9 82 3f fa 0a 82 3f 33 2d 7c 3f
       1.0113761 1.0227369 1.01596 0.9850647
0000f0 4a 0d 7c 3f 0a 9f 7a 3f ed 40 77 3f 90 eb 80 3f
       0.9845778 0.97898924 0.96583444 1.0071888

convs.0.bn2.bias f4 [64]
000000 94 74 65 bc 20 b3 32 bc ed bd 26 3c 01 bd 50 bc
       -0.014004845 -0.010906965 0.010177118 -0.012740375
000010 b4 e9 dd bb 56 3d c4 bb 74 7d 2b bc e4 1d 3e bc
       -0.0067722443 -0.005988757 -0.010466922 -0.011603806
000020 3f 41 2e bc e2 52 43 bc 77 d9 3f bc ca 8f 7d bc
       -0.010635673 -0.011921616 -0.0117095625 -0.0154761765
000030 11 61 46 bc a9 6c 8c bc 48 98 43 bc 64 39 8a bc
       -0.012108103 -0.017141657 -0.011938162 -0.01687307
000040 d4 44 a0 bc 98 41 3f bc 04 b3 21 bd f5 8b 7d bb
       -0.01956407 -0.011673354 -0.039477363 -0.0038688157
000050 d3 a9 59 bc 77 92 4b bc f3 e8 66 bc 8d b2 22 bc
       -0.013285118 -0.012425057 -0.014093625 -0.009930265
000060 1d 2d cc 3b a5 eb a3 bc ae c4 75 bc 77 a4 63 bb
       0.006230964 -0.020009825 -0.015000505 -0.003473548
000070 ea ad 92 bc 28 0f 01 bd 6f 5e d4 ba f2 4c 98 bb
       -0.017905194 -0.031508595 -0.001620246 -0.0046478445
000080 4b 93 be bc 4a da 83 bc b7 e0 5b bc bc 8c 0d bc
       -0.023263594 -0.0160953 -0.013420275 -0.008639511
000090 1c 55 76 bc 6c 0c 50 bc 41 1b 86 bc f8 c8 55 bc
       -0.01503494 -0.012698274 -0.016370418 -0.013048403
0000a0 52 81 63 bc 30 45 b0 bc e5 47 33 bc d2 a3 ac bb
       -0.013885813 -0.021517366 -0.010942434 -0.0052685523
0000b0 f7 fc 47 bc 89 84 f1 bb 96 13 92 bc 6d 13 04 bc
       -0.012206308 -0.0073705357 -0.017831605 -0.008061272
0000c0 d5 21 a8 bc 6c b2 11 bc 1f e0 37 bc 70 eb 3b bc
       -0.020523945 -0.008892637 -0.011222868 -0.011469707
0000d0 c8 7e 7c bc bd 62 be bc e4 86 79 bc 31 f9 89 bc
       -0.015411086 -0.023240441 -0.015229914 -0.016842457
0000e0 56 42 c2 bb 3e 4b 79 bc dd 92 8e bb f9 8b f7 bb
       -0.005928318 -0.015215693 -0.0043510036 -0.007554528
0000f0 cb 2a 30 bc a5 b3 07 bc f0 ef 7f bc d2 ba 10 bc
       -0.01075239 -0.008282577 -0.01562117 -0.008833604

convs.0.bn2.running_mean f4 [64]
000000 99 dc a0 40 54 fb 9a 40 f3 6f 92 40 48 2a 98 40
       5.0269284 4.8431797 4.5761657 4.7551613
000010 f9 b2 9b 40 bc 9b b0 40 a9 71 9a 40 cc 54 90 40
       4.8655972 5.5190105 4.8263745 4.510351
000020 38 84 ab 40 5a 9a a7 40 73 ba a8 40 0a 5c 94 40
       5.35989 5.2375917 5.27276 4.636235
000030 a7 45 a7 40 37 44 a8 40 2b 65 99 40 fd ac 9a 40
       5.2272525 5.258327 4.7935996 4.8336167
000040 80 a6 9c 40 1c 18 b2 40 59 01 98 40 c6 7d a5 40
       4.8953247 5.565443 4.7501645 5.171603
000050 54 88 ad 40 ea 20 a7 40 18 59 94 40 82 47 8f 40
       5.4228916 5.222768 4.6358757 4.477479
000060 b4 83 a7 40 d5 52 a5 40 9f 58 8d 40 4d c1 a6 40
       5.234827 5.1663613 4.417068 5.2110963
000070 23 80 9b 40 c6 5c 9c 40 72 5f 9c 40 b2 84 91 40
       4.8593917 4.886325 4.886651 4.547448
000080 47 23 91 40 ba 49 85 40 3b bd a2 40 7b bf a1 40
       4.5355563 4.16525 5.0855994 5.054624
000090 46 e4 a7 40 00 55 9b 40 c9 2f a4 40 bc 6b ae 40
       5.2466154 4.854126 5.130833 5.450651
0000a0 dc b0 8a 40 19 e3 b5 40 c0 c6 a2 40 fe 77 95 40
       4.3340893 5.683972 5.0867615 4.6708975
0000b0 59 22 99 40 7c 21 a7 40 d4 51 a6 40 c9 68 b2 40
       4.785443 5.2228374 5.197489 5.575291
0000c0 32 df a2 40 2a 56 98 40 da 77 b5 40 f0 9a b4 40
       5.0897455 4.760518 5.6708803 5.6439133
0000d0 84 a0 98 40 ad e5 a7 40 24 08 aa 40 9e 31 a3 40
       4.769594 5.2467866 5.3134937 5.099807
0000e0 b7 8a af 40 38 98 94 40 bc 79 a2 40 d1 ba 98 40
       5.485683 4.6435814 5.07736 4.7728047
0000f0 65 79 9d 40 01 1c a0 40 ca b6 8f 40 ca 15 a5 40
       4.9210687 5.0034184 4.491063 5.15891

convs.0.bn2.running_var f4 [64]
000000 9a f3 aa 40 f4 83 99 40 28 4f 90 40 dc 88 9f 40
       5.3422365 4.7973576 4.5096626 4.9854565
000010 49 70 d6 40 e9 cb 51 40 b5 6c 55 40 73 7d 82 40
       6.7012067 3.2780707 3.33476 4.0778136
000020 e3 02 aa 40 08 2b 50 40 9f f5 f4 3f 89 93 52 40
       5.3128524 3.2526264 1.9137458 3.2902548
000030 3f c6 50 40 56 eb 4b 41 c1 76 0b 40 cb a1 19 40
       3.2621 12.744955 2.1791232 2.4005
000040 5f 1e b5 40 1b 6d 44 41 dd c5 ea 3f 7a bd 40 40
       5.6599574 12.276637 1.8341633 3.0115647
000050 0d 7c 7e 41 ca 22 37 40 02 7e f7 3f 76 8b 4c 40
       15.905286 2.8614984 1.933533 3.196012
000060 b4 43 bd 40 d4 44 44 40 fb e1 c5 3f f4 d2 57 40
       5.9145145 3.066701 1.5459589 3.3722506
000070 42 f3 f5 40 02 2e 82 40 5d 1a f7 40 0a 24 1e 40
       7.6859446 4.068116 7.721968 2.4709496
000080 5c 46 63 40 bb c9 41 40 da 93 de 40 5c dc 77 40
       3.5511694 3.0279377 6.9555483 3.8728247
000090 64 26 b2 40 4d be a6 40 c5 37 5f 40 55 7b c4 40
       5.5671864 5.21073 3.487779 6.140055
0000a0 a7 a9 96 3f a9 d6 e7 40 e7 a3 8e 40 5b 94 33 40
       1.1770524 7.2449536 4.4575076 2.80593
0000b0 dd 9a 6e 40 64 d5 0a 41 bc ed 65 40 72 3c 3b 40
       3.728202 8.677097 3.5926352 2.9255643
0000c0 3a c3 3f 41 73 4c 82 40 7a 21 8c 40 29 a1 a4 41
       11.985163 4.071832 4.3790865 20.578691
0000d0 da 11 f6 40 8b b2 a7 40 47 46 84 40 5a 97 9f 40
       7.689679 5.240545 4.133579 4.9872255
0000e0 d6 f3 b9 40 8c 8d da 3f df e1 f1 3f 57 66 a1 40
       5.811015 1.7074447 1.8897055 5.0437427
0000f0 77 dd 11 41 3e 68 5c 41 12 da 4c 40 4c 52 a7 40
       9.116569 13.77545 3.20081 5.228796

convs.1.fc_full.weight f4 [128, 169]
000000 d1 c2 9e bd 6f dd 59 bd cb cb 1f 3d 4e 4e 01 bd
       -0.07752002 -0.05318969 0.03901271 -0.031568818
000010 82 a6 08 bd dd 37 cf bb 2a ac a1 bd ec 07 7a 3c
       -0.03336192 -0.006323798 -0.07894166 0.015260678
000020 43 59 4a 3c b3 46 9e 3d 03 f4 f9 bb 1c f8 91 3d
       0.012350383 0.077283286 -0.0076279654 0.07127401
000030 a0 67 55 bd 5b c0 9e 3c e4 3f b8 bd 8e 0f 23 3d
       -0.052100778 0.019378832 -0.08996561 0.039809756
000040 57 d6 f9 bb c0 c6 21 3d bc 81 93 3d b2 8c ec bd
       -0.0076244283 0.039496183 0.07202479 -0.11550273
000050 dc ca 56 3d 5a 5d 03 3d e8 fd 01 bd af d9 fa 3c
       0.052439556 0.03207145 -0.031736284 0.030621378
000060 cb e0 4b 3d ae b3 21 bd 42 08 8c 3d 6e 07 01 bd
       0.049774926 -0.039477997 0.068375126 -0.031501226
000070 e2 29 c5 bc 44 4e 84 bc 4c d3 54 3c 54 a9 95 3d
       -0.024067823 -0.016150601 0.01298983 0.073076874
000080 c1 d3 2e bd 73 93 98 3c 52 b2 1e 3d 72 6a db 3c
       -0.042682413 0.018624997 0.03874428 0.026784156
000090 9a ac 48 ba 07 a0 44 bd 9e 52 b7 3c a0 fd bc bd
       -0.0007655114 -0.048004176 0.022378262 -0.09228063
0000a0 5b 9b a0 bc a0 98 53 bd d8 57 fc 3a 88 67 15 bd
       -0.01960533 -0.051659226 0.0019252254 -0.03647569
0000b0 92 8a 46 3d b0 70 28 3c 3a 51 0b bc 3d 08 88 bd
       0.048471995 0.010280773 -0.008503253 -0.06642196
0000c0 c6 10 5a 3c 16 3a c3 bd c2 3b 1d bc 9b 1e 7b 3c
       0.013309663 -0.095325634 -0.009596767 0.015327121
0000d0 28 b7 4d bb df 9b 96 bd fd e9 2f 3d b5 d3 9a 3d
       -0.0031389687 -0.07353949 0.042947758 0.07559911
0000e0 11 7f 98 bd ba 2a 02 bd a3 3f 71 bc 63 98 9a ba
       -0.07446111 -0.03177903 -0.014724645 -0.0011794682
0000f0 04 22 70 bd 64 8e 0c bd c1 05 7a bd e2 49 ce 3c
       -0.05862619 -0.03431548 -0.061040644 0.025181714
000100 b0 2d 51 3c ce e9 21 3d 80 7c af bd 16 aa 02 3c
       0.01276724 0.039529614 -0.08568668 0.007975122
000110 fb 75 58 bd 77 65 78 3d 74 94 a0 bc ff 22 08 3b
       -0.05284689 0.06064364 -0.019602038 0.0020772812
000120 de 9a 5f 3c 66 8e 85 3d df 66 72 bd 69 79 13 3d
       0.013647763 0.06521301 -0.059180137 0.036004458
000130 07 1a 84 39 a7 22 af bc c8 fa f6 bc ef 1a 44 bd
       0.00025196394 -0.021378828 -0.030148879 -0.04787725
000140 f4 69 8f 3d d7 ec 71 3d 22 48 48 3d 7a ad 54 bd
       0.07002631 0.05906376 0.048896916 -0.051923253
000150 95 03 1c bd ec b4 b6 bd dd 8b 53 bd 8e c8 d8 3c
       -0.038089354 -0.08921227 -0.051647056 0.02646282
000160 1c 77 26 3d e5 12 85 3d 0b c5 3d bd 5e dd 85 3d
       0.040640935 0.064977445 -0.046330493 0.06536363
000170 77 23 8d 3d 17 bd 44 bd 32 06 2d 3d f6 2b 34 3d
       0.0689153 -0.048031893 0.042242236 0.043987237
000180 89 45 eb bc dc f9 3e bc 33 54 70 bb b6 ce 42 3c
       -0.02871968 -0.011656251 -0.003667128 0.011890104
000190 96 bd 9a 3d 8d 11 5d 3c 08 84 79 3c 8c 14 99 bd
       0.07555692 0.013492954 0.015229233 -0.07474622
0001a0 e7 a3 f2 bc a5 92 ce 3b d3 bf 57 3d 13 b5 f1 3c
       -0.02961917 0.0063041025 0.052673172 0.029505288
0001b0 79 19 15 3d d0 6d 06 bd 4e f5 89 bc 48 0a 4b 3d
       0.036401246 -0.03281957 -0.016840603 0.04957035
0001c0 51 2c 29 3d 33 b7 8b bd 27 66 02 bd 58 b9 bb 3c
       0.04130203 -0.06822052 -0.0318357 0.022915527
0001d0 e8 0e 54 bd 78 47 69 bd fd d2 74 3d 12 6b 2a bc
       -0.05177203 -0.056952924 0.059771527 -0.010401504
0001e0 b6 92 63 3d d8 cc 84 bd dd fe ac 3c aa 4a 62 3d
       0.055559836 -0.06484383 0.021117622 0.055246986
0001f0 bd c5 53 bd be 4b 61 3d 0d e3 64 bc 24 91 ac 3c
       -0.05170225 0.055003874 -0.013970149 0.021065302
000200 6b af 95 bd db 7c 2a bd ce f3 84 bd db 7f a4 bc
       -0.07308849 -0.041622978 -0.064918146 -0.020080497
000210 16 f3 93 3d 00 24 16 bd fd f5 ca 3c 88 9c 9c 3d
       0.07224099 -0.036655426 0.0247755 0.076470435
000220 ae 53 39 3d dd 7a 3f 3d a9 9a 2d bd fb 38 81 bd
       0.04524582 0.04674803 -0.042383824 -0.06309696
000230 99 c2 cc 3a dd 82 a2 3c 3e fb 9d bc 42 98 df 3a
       0.001562196 0.019837791 -0.01928484 0.0017058926
000240 a4 0c 75 bd bf 13 89 3b 52 a3 91 bd 77 bc 30 bd
       -0.05982651 0.004183262 -0.07111229 -0.043148484
000250 ea 58 22 bb 3f f3 f7 3c 8a 3f 4b 3d b3 b3 77 3d
       -0.0024772235 0.030267356 0.049621142 0.06047411
000260 c8 af 1f bd 8e b6 61 bd 0f e8 d9 bb a0 45 e9 bc
       -0.038985997 -0.05510574 -0.006649978 -0.028475583
000270 22 17 51 bd 41 20 61 bc 46 34 a3 bc 36 64 86 bd
       -0.05104745 -0.0137406 -0.019922387 -0.065620825
000280 9f c3 8d 3d 9e 93 b0 bc ef 6d 37 bd cd e0 82 bd
       0.069220774 -0.021554764 -0.044782575 -0.063905336
000290 98 88 3f 3c 94 75 6c bd c6 73 de bc e6 3d 70 3d
       0.011690281 -0.05772932 -0.027154814 0.05865278
0002a0 3c 73 cb 3c 26 d5 41 bd 07 dc 17 bd 4b 80 46 3d
       0.024835221 -0.047322415 -0.03707507 0.048462193
0002b0 60 87 ad 3b c8 fc 4f 3d db a5 a2 3c c3 26 0a bd
       0.005295679 0.05077818 0.019854477 -0.033728372
0002c0 12 5b 88 3d 25 eb 96 3b 5f 86 d1 3b a9 cc cc 3c
       0.06657995 0.004605668 0.006394192 0.024999933
0002d0 f3 80 0b bd 99 d1 ba 3c 01 a9 e0 bc 1a 79 d3 bb
       -0.034058522 0.022805022 -0.027424337 -0.0064536454
0002e0 a3 05 98 3c dc fc 85 bc 4c 38 43 3d b7 b2 22 3d
       0.018557375 -0.016355924 0.04766111 0.039721217
0002f0 9b b2 4f 3d d5 95 68 3d 1a 99 88 3b 72 69 a1 3d
       0.05070744 0.056783516 0.0041686418 0.0788144
000300 46 2f 70 3d b5 b3 c7 3c 21 fb 4e bd dd b5 09 bd
       0.058638833 0.024377683 -0.050532464 -0.033620704
000310 eb f3 a2 3d ee ff 50 3d 74 ef db bc e8 74 5e bd
       0.0795668 0.051025324 -0.026847579 -0.05431071
000320 33 7b 81 3d a7 cd fe bb bd fe a9 3b f6 5e 13 bd
       0.063223265 -0.0077759805 0.005187838 -0.035979234
000330 bc 20 1a bd fa d1 62 bd be 71 96 bd 08 c2 80 3c
       -0.037628874 -0.05537603 -0.07345913 0.015717521
000340 ab 7d 25 bd a8 15 8a ba b8 e5 df 3c 96 ef 96 3d
       -0.04040305 -0.0010535019 0.027331218 0.07369916
000350 7a 5b 91 3d 9c b4 6d 3c e3 4a 37 bd 30 46 56 bc
       0.07097526 0.014508393 -0.044749152 -0.013078257
000360 af 88 ad 3c 7e d0 a0 3c 31 2e 51 3d 50 70 3f 3d
       0.02118334 0.019630667 0.051069442 0.04673797
000370 c0 7d 4d bd 25 c4 19 bb 0d 27 9a 3d 42 9a 69 3d
       -0.050168753 -0.0023462859 0.075269796 0.057031877
000380 b7 e8 95 bd 08 19 92 3d 72 d3 93 bd c4 0e 6c bd
       -0.073197775 0.071336806 -0.07218064 -0.05763127
000390 f7 57 b4 bb ef b2 92 bd 62 3e 8a bd d0 62 23 bd
       -0.0055036503 -0.07163035 -0.0675018 -0.039889157
0003a0 be 71 33 bd 12 52 5b 3d 71 8a 91 3c 6a b7 70 3d
       -0.043809645 0.053545065 0.01776621 0.058768667
0003b0 d2 0c a5 3d bc 9d a7 3c 00 74 70 3d 6a fa 42 3b
       0.08059086 0.020460956 0.058704376 0.002975131
0003c0 61 ed 74 bd 8a 56 6c bd 5f f2 90 bd 0b 7e 8b 3d
       -0.059796695 -0.057699718 -0.070774786 0.0681115
0003d0 ac de 89 3d 35 8e 2b bd 20 c4 86 3d ce 5f 83 bd
       0.067319244 -0.041883666 0.065803766 -0.06414758
0003e0 0d 87 33 3d e8 b2 87 3d 61 81 d5 ba 76 0b b4 bc
       0.043829966 0.066259205 -0.0016289168 -0.021978121
0003f0 f8 a0 91 3d 21 c3 7d bd 65 97 5a bd 7a d5 84 3d
       0.071107805 -0.061953668 -0.053367037 0.0648603
